p3_collab-compet/checkpoint_actor.pth (torch_old, 524663 bytes, 6 tensors)

fc1.weight f4 [400, 24]
0.014115422 0.010160034 -0.02660415 -0.049781505 -0.0062928335 -0.040037528 -0.05903279 0.00019931734
-0.0010537325 0.031817466 -0.021909378 -0.01784917 -0.0014665296 0.015477667 -0.018915268 0.000789343
-0.059787456 -0.03818218 0.06534998 -0.009240649 0.00507994 0.044347595 0.020711288 -0.077282496
-0.039105657 -0.09976941 -0.05347334 -0.020728033 0.08020274 -0.034920458 -0.025105378 0.025426565
-0.024980193 -0.049929447 -0.0011420563 0.071807384 0.09752835 -0.09300808 0.034492664 0.06253641
-0.05676023 -0.036941454 0.005708091 -0.05389717 0.12180359 0.035023592 0.056306183 -0.07326015
0.072506286 -0.028111747 -0.00940134 0.068575345 0.07849222 0.07162011 0.0043975147 0.0779665
0.11823733 0.09645823 0.036958568 0.044753928 0.10015304 -0.034720886 -0.041396104 0.059768636
0.0059906617 0.106060825 -0.020213788 0.087514214 0.21252118 -0.031665776 0.013062519 0.047846217
0.024164263 -0.0015558873 -0.00010816764 0.011061709 -0.10879263 0.01674502 0.006887368 0.015352761
0.05386897 0.037426755 -0.014225831 -0.0016143668 -0.038774952 0.118205644 0.030327758 0.021572717
0.043001853 -0.032673314 0.04336806 0.13704215 -0.04711388 0.1322394 0.0542567 0.12594612
-0.056317225 -0.0036656084 0.036967102 -0.03306879 0.01976387 0.08404776 -0.007343247 0.016580455
-0.08348192 -0.036930855 -0.031745523 0.023504043 0.003763058 0.03866194 -0.036088046 -0.019172406
-0.015277595 -0.08741128 0.0036172674 -0.044892017 -0.015896957 0.14979385 -0.024857285 -0.074085854
0.015609779 0.07850409 0.034777787 -0.018692074 0.10425251 -0.024492484 0.030230807 -0.08067961
-0.017045384 0.057852756 0.037851263 0.019313604 0.091436304 -0.03482065 -0.0077102724 0.01274033
-0.01464305 0.10120245 -0.07326776 -0.016371878 0.09410706 -0.021053571 -0.065373674 -0.089489326
0.032378666 -0.050123703 0.017010232 -0.06806091 -0.06930746 -0.012511523 0.045735873 -0.010740059
0.050050218 -0.13000442 -0.03754285 0.0812655 -0.036312137 0.0036974787 0.016853053 0.066965654
0.01862216 -0.09658923 0.008505027 0.08683054 -0.011117047 -0.100258246 0.032486048 0.07166324
-0.044887684 0.018383224 0.03062484 0.031841855 0.04141695 -0.03387231 -0.029840684 -0.02358064
-0.054926433 0.038711507 -0.036926065 -0.022521656 -0.0292422 -0.060878955 0.0017581354 0.073787495
-0.026939727 0.018882534 0.072523564 -0.013223928 -0.016637921 -0.01787384 0.058022246 0.0044263853
0.09845785 0.1327402 0.04182223 0.113358766 -0.016308527 -0.07572604 0.035969175 0.070640005
-0.025259653 0.19850253 0.016823597 0.04066905 0.0189045 -0.15183148 0.006352235 0.04831159
0.013036934 0.20149234 -0.028709337 -0.021839853 0.009681396 -0.18458757 -0.026294222 0.00593059
-0.032539617 -0.021343471 0.04544392 0.013859073 -0.015910365 -0.048694514 0.021376947 -0.02268378
-0.088864915 -0.04691279 -0.05560284 -0.07283355 -0.065140635 -0.013595911 -0.06281721 -0.0554258
-0.023727542 0.0052046375 0.017504388 -0.019512614 -0.030348783 -0.008636059 -0.038083788 0.00072248356
0.09315973 -0.034076918 -0.008042487 0.0052675563 0.18357024 -0.17795795 -0.034896225 -0.051033523
-0.022940632 -0.049121194 0.0509558 -0.0938079 0.17504321 0.049354766 0.008073686 -0.044293277
00000000: 5f44 673c 4576 263c f2f0 d9bc b1e7 4bbd
00000010: 1d34 cebb 64fe 23bd 5ecc 71bd d7ff 5039
00000020: 651d 8aba 0853 023d 4c7b b3bc 6c38 92bc
00000030: 9138 c0ba 0a96 7d3c 31f4 9abc e9eb 4e3a
00000040: b1e3 74bd eb64 1cbd 36d6 853d 1766 17bc
00000050: a075 a63b d3a5 353d b8aa a93c 4946 9ebd
00000060: 412d 20bd e853 ccbd dc06 5bbd d6cd a9bc
00000070: 5641 a43d c108 0fbd cba9 cdbc 5f4b d03c
00000080: 43a3 ccbc d282 4cbd 0db1 95ba c00f 933d
00000090: f2bc c73d 057b bebd 2e48 0d3d 1713 803d
000000a0: 6a7d 68bd ec4f 17bd f00a bb3b 47c3 5cbd
000000b0: 2974 f93d e674 0f3d 50a1 663d 6b09 96bd
000000c0: 2d7e 943d 9b4a e6bc 1408 1abc 3b71 8c3d
000000d0: 87c0 a03d 90ad 923d 0719 903b e6ac 9f3d
000000e0: 6a26 f23d e48b c53d de61 173d e54f 373d
000000f0: 091d cd3d 7d37 0ebd f68e 29bd f5cf 743d
00000100: 504d c43b 6b36 d93d 6397 a5bc a73a b33d
00000110: 279f 593e f9b3 01bd 2d04 563c 65fa 433d
00000120: 22f4 c53c eaee cbba 0fd8 e2b8 2c3c 353c
00000130: acce debd da2c 893c 6eaf e13b 268a 7b3c
00000140: b6a5 5c3d cc4c 193d 7613 69bc 2999 d3ba
00000150: 7cd2 1ebd cd15 f23d eb71 f83c 44b9 b03c
00000160: b622 303d 74d4 05bd b5a2 313d c754 0c3e
00000170: 7cfa 40bd c469 073e 463c 5e3d 05f8 003e
00000180: e4ac 66bd b43a 70bb d16a 173d 2473 07bd
00000190: d7e7 a13c 3b21 ac3d 9f9f f0bb bcd3 873c
000001a0: 92f8 aabd cf44 17bd 9807 02bd 8d8b c03c
000001b0: a39d 763b fb5b 1e3d 0fd1 13bd 730f 9dbc
000001c0: e14e 7abc af04 b3bd ad0f 6d3b b1e0 37bd
000001d0: 563a 82bc 8f63 193e 81a1 cbbc 53ba 97bd
000001e0: 29c0 7f3c c1c6 a03d 2773 0e3d 1f20 99bc
000001f0: 5782 d53d 76a4 c8bc 99a6 f73c 5a3b a5bd
00000200: c3a2 8bbc 03f7 6c3d ed09 1b3d 9037 9e3c
00000210: f542 bb3d 19a0 0ebd 74a6 fcbb d1bc 503c
00000220: 67e9 6fbc 3b43 cf3d 680d 96bd 511e 86bc
00000230: 34bb c03d 8a78 acbc a2e2 85bd 2e46 b7bd
00000240: 7e9f 043d 834e 4dbd 0b59 8b3c 8563 8bbd
00000250: 12f1 8dbd 22fd 4cbc 8a55 3b3d 13f7 2fbc
00000260: 7501 4d3d e11f 05be 88c6 19bd 876e a63d
00000270: 09bc 14bd 6651 723b 6a0f 8a3c 4a25 893d
00000280: 808d 983c 93d0 c5bd ab58 0b3c 36d4 b13d
00000290: 4624 36bc 3254 cdbd 1710 053d 2dc4 923d
000002a0: 26dc 37bd 6a98 963c f2e0 fa3c 9b6c 023d
000002b0: d2a4 293d b1bd 0abd 7374 f4bc 302c c1bc
000002c0: 8afa 60bd f58f 1e3d c93f 17bd 567f b8bc
000002d0: 578d efbc 365c 79bd 3c71 e63a e61d 973d
000002e0: b4b0 dcbc 8baf 9a3c 3c87 943d 2da9 58bc
000002f0: 404c 88bc 296c 92bc bca8 6d3d 360b 913b
00000300: 45a4 c93d 0ced 073e c94d 2b3d a428 e83d
00000310: 7699 85bc 4116 9bbd 6a54 133d b5ab 903d
00000320: 55ed cebc 3f44 4b3e a4d1 893c 9794 263d
00000330: 9cdd 9a3c b679 1bbe 6926 d03b 60e2 453d
00000340: dd98 553c 0254 4e3e d82f ebbc 7ee9 b2bc
00000350: b89e 1e3c 8604 3dbe fb66 d7bc 6555 c23b
00000360: 4348 05bd 81d8 aebc 6723 3a3d 2a11 633c
00000370: 7456 82bc e673 47bd b51e af3c 56d3 b9bc
00000380: cffe b5bd a027 40bd cebf 63bd c229 95bd
00000390: 7468 85bd 62c1 5ebc 4fa6 80bd 2a06 63bd
000003a0: 4360 c2bc aa8b aa3b 5d65 8f3c ebd8 9fbc
000003b0: 039e f8bc 427e 0dbc bffd 1bbd 0d65 3d3a
000003c0: 87ca be3d 3d94 0bbd a3c4 03bc 779b ac3b
000003d0: d6f9 3b3e 9c3a 36be 58ef 0ebd 8708 51bd
000003e0: feed bbbc 4e33 49bd 07b7 503d 5b1e c0bd
000003f0: 873e 333e 3928 4a3d 7e47 043c de6c 35bd

fc1.bias f4 [400]
0.16298333 0.08834391 -0.121838376 0.14813864 0.07377386 0.07287401 0.0844233 -0.11162078
-0.017612504 -0.14893101 0.017986765 -0.21585862 0.09214811 -0.0688473 0.06117767 -0.15981105
0.025737397 -0.023632668 -0.14482464 0.1776624 -0.16683738 0.21772145 0.0034045158 -0.11785199
-0.16700058 -0.25104147 0.0030875353 0.18150252 0.05739748 -0.1690948 0.13962884 0.096177585
0.09769224 0.21360686 0.17158678 0.013869017 0.20138034 -0.06365581 0.009438313 -0.06159553
-0.122544624 -0.11996682 0.034466606 -0.037982084 0.12850532 0.2254349 0.160172 -0.05373449
0.26610452 -0.2035076 0.15113674 -0.1481505 0.24067578 0.041511655 -0.0883598 -0.097810745
-0.17157729 0.09466548 0.093513995 0.12940839 0.17192413 0.17217195 -0.16845115 0.110901505
0.04956109 0.11924276 0.007264869 -0.058888886 0.18308677 -0.02571831 -0.03597533 -0.16247882
0.20198667 -0.031402666 -0.1548089 0.051707257 0.0015111553 -0.08855271 0.19649865 0.20666674
0.16778581 0.010801704 -0.11680799 -0.1752905 -0.03106096 -0.19236109 0.14665404 -0.15888546
-0.116742946 0.10574994 0.06680991 0.0063014776 0.025444183 -0.0935506 -5.538465e-05 -0.10681582
-0.14041844 -0.09327203 0.033331387 0.05165677 0.21870479 -0.26175743 0.06334141 0.109039344
0.060491975 -0.120697305 0.10762846 -0.09725757 -0.06006081 -0.024559425 -0.09426765 -0.19208692
0.11943901 0.14106944 -0.20365089 0.04580593 -0.17476363 0.034092538 0.061572302 0.19200443
0.15702783 0.15997805 -0.024082052 -0.22880335 -0.025932886 0.20895404 -0.0944637 -0.028953258
-0.05309732 0.117366076 0.15412484 -0.008889533 0.1216479 0.16732424 0.049779486 0.11616806
0.14301643 0.09087221 0.039011214 -0.1765972 -0.056954436 0.006925054 0.04538915 -0.02331574
-0.16012098 0.14704598 -0.1373126 -0.12257133 -0.07762321 0.06608835 -0.04565455 -0.16634761
0.14409363 -0.033314724 0.19161405 -0.24115688 -0.09134921 -0.14716454 -0.06154204 -0.12469546
0.101395056 -0.017396027 0.13628781 0.0031056681 -0.14052634 -0.024296783 0.13049705 0.16481623
-0.037194308 0.03630552 -0.19958967 -0.094701946 -0.036821496 0.12593669 -0.04535296 0.1108451
-0.10050339 0.02393793 -0.19380537 -0.025505345 0.24858637 0.056553274 -0.22567508 -0.19687708
0.008261833 -0.056425203 -0.25162908 0.0732794 0.01526199 0.005547331 0.1444357 -0.2129123
0.04067369 0.15396313 0.031229654 0.11885866 -0.0047793863 -0.19746038 0.12837474 -0.12207829
0.0006667095 0.206359 -0.09488726 -0.02935815 -0.08864184 0.06226274 -0.044074956 0.116835736
0.17714703 -0.17045686 0.07678534 -0.059061352 -0.21404532 0.04385722 -0.21606468 0.22180632
-0.0527333 -0.10481936 -0.15933153 0.08263867 -0.25463828 0.047456916 0.03303539 -0.124901205
0.13933009 -0.10276195 -0.053835303 -0.029233139 0.16756052 -0.14556468 -0.05702676 -0.13595225
0.004001034 0.0045798975 -0.12519813 -0.00469344 -0.04549535 -0.046415262 -0.030816207 0.18883996
0.09732256 -0.0021030533 0.016891599 -0.15788437 0.12657556 0.060395095 0.06466927 0.15058836
-0.07154393 -0.1693661 -0.123304926 -0.19272546 0.15796074 0.19713737 -0.07893789 -0.04236444
00000000: 1ae5 263e a7ed b43d 6686 f9bd a8b1 173e
00000010: c016 973d f83e 953d 20e6 ac3d 6f99 e4bd
00000020: 1948 90bc 5f81 18be fb58 933c 0b0a 5dbe
00000030: 26b8 bc3d d0ff 8cbd 7095 7a3d 82a5 23be
00000040: 3cd7 d23c 4c99 c1bc e94c 14be 22ed 353e
00000050: 6bd7 2abe 5ff2 5e3e 4c1e 5f3b 625c f1bd
00000060: 3302 2bbe 8288 80be 3f58 4a3b ccdb 393e
00000070: 9f19 6b3d 3027 2dbe ddfa 0e3e c1f8 c43d
00000080: de12 c83d c2bb 5a3e 72b4 2f3e e03a 633c
00000090: a636 4e3e fa5d 82bd 27a3 1a3c 984b 7cbd
000000a0: adf8 fabd 2ab1 f5bd db2c 0d3d 1a93 1bbd
000000b0: e696 033e 68d8 663e 2104 243e b218 5cbd
000000c0: da3e 883e 4c64 50be 97c3 1a3e c4b4 17be
000000d0: b673 763e 2008 2a3d fcf5 b4bd 0051 c8bd
000000e0: f5b1 2fbe fadf c13d 4484 bf3d a283 043e
000000f0: e10c 303e d84d 303e 757e 2cbe 5420 e33d
00000100: 9200 4b3d 8c35 f43d 230e ee3b 7935 71bd
00000110: 197b 3b3e 35af d2bc de5a 13bd d960 26be
00000120: 98d5 4e3e 15a0 00bd 3986 1ebe fdca 533d
00000130: f511 c63a 205b b5bd f136 493e 72a0 533e
00000140: 0bd0 2b3e a1f9 303c 0739 efbd 5a7f 33be
00000150: 8e73 febc 4efa 44be 7a2c 163e dfb2 22be
00000160: ed16 efbd 6d93 d83d a2d3 883d a07c ce3b
00000170: 5270 d03c 7597 bfbd d14c 68b8 41c2 dabd
00000180: dac9 0fbe 6805 bfbd 7e86 083d 0d96 533d
00000190: 26f4 5f3e 1205 86be 24b9 813d 0550 df3d
000001a0: 6fc6 773d 2630 f7bd 4f6c dc3d fa2e c7bd
000001b0: 5302 76bd d930 c9bc 660f c1bd 6fb2 44be
000001c0: 719c f43d 8274 103e dc89 50be 009f 3b3d
000001d0: 3df5 32be 9ea4 0b3d 3d33 7c3d cf9c 443e
000001e0: e7cb 203e 49d1 233e b947 c5bc 6d4b 6abe
000001f0: 3471 d4bc 0cf8 553e 2f76 c1bd 622f edbc
00000200: 937c 59bd a05d f03d e7d2 1d3e 67a5 11bc
00000210: 8922 f93d 0c57 2b3e 93e5 4b3d 85e9 ed3d
00000220: e672 123e 361b ba3d 39ca 1f3d e5d5 34be
00000230: 0e49 69bd 90eb e23b f9e9 393d a700 bfbc
00000240: c1f6 23be 3993 163e ad9b 0cbe ad06 fbbd
00000250: ebf8 9ebd 5459 873d 4400 3bbd 0757 2abe
00000260: 488d 133e 0575 08bd 7936 443e d4f1 76be
00000270: 4b15 bbbd 4db2 16be 8213 7cbd 5560 ffbd
00000280: 36a8 cf3d 1d82 8ebc 088f 0b3e 7788 4b3b
00000290: 23e6 0fbe 0c0a c7bc 05a1 053e 96c5 283e
000002a0: 0f59 18bd 19b5 143d 3c61 4cbe 18f3 c1bd
000002b0: 23d2 16bd 8cf5 003e 06c4 39bd c102 e33d
000002c0: b9d4 cdbd 7a19 c43c ea74 46be 96f0 d0bc
000002d0: 6d8d 7e3e 68a4 673d 5e17 67be 259a 49be
000002e0: a45c 073c 1d1e 67bd 87d5 80be 8313 963d
000002f0: 6d0d 7a3c 63c6 b53b f4e6 133e af05 5abe
00000300: 7599 263d 83a8 1d3e 55d5 ff3c 2b6c f33d
00000310: 669c 9cbb 0e33 4abe ab74 033e 2f04 fabd
00000320: 1ec6 2e3a c64f 533e 4054 c2bd 8180 f0bc
00000330: da89 b5bd 3707 7f3d f187 34bd 9347 ef3d
00000340: 0866 353e 3e8c 2ebe a241 9d3d 51ea 71bd
00000350: b22e 5bbe a1a3 333d 0f40 5dbe 3221 633e
00000360: dffe 57bd 88ab d6bd ce27 23be 773e a93d
00000370: f35f 82be 2f62 423d 1e50 073d 34cc ffbd
00000380: 8cac 0e3e db74 d2bd 6882 5cbd 567a efbc
00000390: fc94 2b3e e80e 15be e494 69bd 1137 0bbe
000003a0: 1b1b 833b f712 963b f033 00be 6ecb 99bb
000003b0: 5559 3abd ee1d 3ebd 4572 fcbc 435f 413e
000003c0: 0d51 c73d 61d3 09bb 4060 8a3c 71ac 21be
000003d0: 069d 013e d960 773d 5271 843d d633 1a3e
000003e0: a085 92bd 4f6e 2dbe 4b87 fcbd d359 45be
000003f0: 76c0 213e 61de 493e 30aa a1bd 5686 2dbd

fc2.weight f4 [300, 400]
-0.012364615 0.048013873 -0.09638258 0.06414628 -0.03947235 0.07729128 0.042800844 -0.05932945
0.10419484 0.0024701308 0.06821276 0.059557892 0.021118088 -0.06340461 -0.08195322 -0.05789278
-0.0066598733 0.0126016205 -0.055860896 0.021396087 -0.058209598 0.02904227 0.0889143 0.013215136
0.030121919 -0.022969818 0.14395778 0.07918632 0.002712264 0.10260954 0.0703866 0.05395973
0.032492407 0.02144019 0.11353122 0.0008160547 0.053232443 -0.004019121 0.14596842 -0.009853
0.040907163 -0.056935914 -0.03671992 0.11074207 -0.011014817 -0.0060663326 0.1532522 0.050225943
0.086869024 0.024464251 0.066029735 -0.0610473 0.029086934 0.00023548072 0.03109122 -0.10939263
-0.025403176 -0.06338871 0.0034741021 0.0021947909 -0.02283457 -0.005737976 -0.032272905 -0.046618186
0.036280073 0.050603278 0.012158494 -0.013388712 0.10402019 -0.037414085 0.1667675 0.00534741
0.07266192 -0.016805008 -0.040941834 0.030954558 0.095074534 0.01919701 0.017056681 0.05847663
-0.019512005 0.045452226 0.08055544 -0.053789858 -0.016202966 -0.035148077 -0.029979566 -0.08866631
-0.018875828 0.010713509 0.0025680969 -0.08470286 0.084465 -0.049606677 0.07407044 -0.03273626
0.023691919 -0.007953794 0.07775431 0.05918814 0.06422378 -0.03405657 -0.03458067 0.026541052
0.013756815 -0.040251035 0.012871249 0.07684893 0.038511306 0.018085731 -0.11720301 -0.10693833
-0.099635005 0.020080877 -0.032590248 0.013283093 0.024692303 0.036347184 0.051866017 0.07297355
0.06821365 0.037243526 0.083895154 0.03356913 0.007619853 0.01220298 -0.07571083 -0.040750667
-0.16790584 0.09034978 -0.0028877123 -0.017387912 0.035408765 0.06984429 0.017520769 0.1387904
0.024288654 0.055229817 -0.082750626 -0.122494616 0.10311116 0.046349596 0.020386167 0.028436847
-0.11105881 0.00364263 -0.08594309 0.06934122 0.063667834 0.11638777 -0.06843452 -0.04633629
-0.02171994 -0.09968559 0.022459336 0.026620049 -0.0025090661 -0.008243657 -0.03274253 -0.08040727
-0.04008879 0.013781819 0.07216915 -0.013467323 -0.038045708 -0.065856196 0.0032624668 0.07108011
0.02529947 0.0032118643 0.06502824 -0.0057856757 0.012049997 -0.0031685196 -0.004208083 -0.02791221
0.035135034 0.038178243 -0.032400172 -0.11273523 0.06530434 0.033820547 -0.018419774 0.07741272
0.052767627 -0.036925945 -0.084443256 -0.003339005 0.04621557 -0.058595713 0.041815516 0.0603243
-0.021875795 -0.11423514 -0.08847333 -0.047389075 0.024104035 0.0054631503 -0.0129514625 0.119748086
0.042279847 -0.038169634 -0.06541821 0.083878726 0.06231859 0.011667166 0.01179956 -0.16281347
-0.03708261 -0.044566233 0.027223965 -0.014807508 0.005417629 0.10515137 0.05529793 0.016261144
0.07681117 0.023618946 0.06587417 -0.041991156 -0.024748446 0.0012120461 -0.03376442 0.08746488
0.034613326 -0.04606918 -0.03667457 0.07003283 0.013214553 -0.056061372 -0.054144472 -0.032874543
0.036315575 -0.03302849 -0.002975553 -0.05523916 0.07785663 0.06656761 -0.058620535 -0.015009719
-0.09371061 -0.060009502 0.035326798 0.009837731 0.017189829 0.024421742 0.046559587 0.0650568
-0.0035138384 -0.015504131 0.060633793 0.03972162 0.011396143 -0.0052872486 -0.054408003 -0.056823827
00000000: f494 4abc 32aa 443d 3b64 c5bd 205f 833d
00000010: c2ad 21bd e44a 9e3d f04f 2f3d 7003 73bd
00000020: 1b64 d53d ebe1 213b 22b3 8b3d faf2 733d
00000030: d7ff ac3c 47da 81bd 17d7 a7bd fb20 6dbd
00000040: 113b dabb 0777 4e3c 65ce 64bd d946 af3c
00000050: 306d 6ebd 0eea ed3c b318 b63d 4c84 583c
00000060: 3ec2 f63c 332b bcbc ab69 133e 702c a23d
00000070: 3dc0 313b f324 d23d da26 903d e104 5d3d
00000080: c216 053d 56a3 af3c 0e83 e83d 81ec 553a
00000090: 430a 5a3d d5b2 83bb bf78 153e 7a6e 21bc
000000a0: 458e 273d a235 69bd a067 16bd bdcc e23d
000000b0: 7e77 34bc 16c8 c6bb 25ee 1c3e b8b9 4d3d
000000c0: 63e8 b13d 4169 c83c 993a 873d bc0c 7abd
000000d0: b947 ee3c 60eb 7639 04b3 fe3c 3e09 e0bd
000000e0: 521a d0bc f1d1 81bd c3ad 633b 7bd6 0f3b
000000f0: 900f bbbc a205 bcbb 9830 04bd b6f2 3ebd
00000100: 6a9a 143d 6245 4f3d 6c34 473c 545c 5bbc
00000110: 8a08 d53d 833f 19bd 19c5 2a3e 5439 af3b
00000120: c6cf 943d a8aa 89bc a0b2 27bd 6a94 fd3c
00000130: 70b6 c23d 0c43 9d3c 74ba 8b3c 3185 6f3d
00000140: a4d7 9fbc 1d2c 3a3d 40fa a43d c152 5cbd
00000150: 15bc 84bc 6ef7 0fbd b597 f5bc af96 b5bd
00000160: 7ba1 9abc b787 2f3c 844d 283b b178 adbd
00000170: fcfb ac3d 5f30 4bbd 3eb2 973d 7516 06bd
00000180: 8e15 c23c a150 02bc a73d 9f3d 436f 723d
00000190: c287 833d e77e 0bbd 76a4 0dbd 9f6c d93c
000001a0: 4464 613c 45de 24bd eee1 523c f962 9d3d
000001b0: 08be 1d3d 8728 943c 2208 f0bd 7c02 dbbd
000001c0: 700d ccbd a780 a43c 5a7d 05bd 55a1 593c
000001d0: 8347 ca3c c9e0 143d 7671 543d 2873 953d
000001e0: 99b3 8b3d ab8c 183d 39d1 ab3d c97f 093d
000001f0: f6af f93b 02ef 473c 480e 9bbd 2cea 26bd
00000200: 82ef 2bbe 4e09 b93d c63f 3dbb 1871 8ebc
00000210: c808 113d 860a 8f3d b787 8f3c 121f 0e3e
00000220: 00f9 c63c a938 623d 2979 a9bd 75de fabd
00000230: f22b d33d 13d9 3d3d e400 a73c 64f4 e83c
00000240: cd72 e3bd 31b9 6e3b ee02 b0bd c502 8e3d
00000250: 4864 823d b65c ee3d 6627 8cbd 1fcb 3dbd
00000260: 04ee b1bc f527 ccbd a4fc b73c 4a12 da3c
00000270: 256f 24bb 6710 07bc 081d 06bd 91ac a4bd
00000280: 2534 24bd 23cd 613c 6bcd 933d 0ca6 5cbc
00000290: d1d5 1bbd 9ddf 86bd 1ccf 553b 7392 913d
000002a0: d640 cf3c 247e 523b 872d 853d c495 bdbb
000002b0: 5a6d 453c f0a6 4fbb f5e3 89bb 26a8 e4bc
000002c0: c1e9 0f3d ca60 1c3d 0bb6 04bd bae1 e6bd
000002d0: 48be 853d 6a87 0a3d 11e5 96bc 8f8a 9e3d
000002e0: de22 583d a93f 17bd 96f0 acbd 35d3 5abb
000002f0: 8a4c 3d3d 0f02 70bd bf46 2b3d 9d16 773d
00000300: de34 b3bc 1df4 e9bd 8131 b5bd 0c1b 42bd
00000310: d375 c53c 3a04 b33b 5f32 54bc 7c3e f53d
00000320: a22d 2d3d c357 1cbd fcf9 85bd 9cc8 ab3d
00000330: c741 7f3d a427 3f3c f152 413c 93b8 26be
00000340: efe3 17bd 158b 36bd cb04 df3c 319b 72bc
00000350: 5e86 b13b 9a59 d73d 1580 623d 1736 853c
00000360: 2d4f 9d3d 857c c13c 09e9 863d ebfe 2bbd
00000370: 41bd cabc 85dd 9e3a 8f4c 0abd c920 b33d
00000380: b4c6 0d3d 09b3 3cbd 1338 16bd 5f6d 8f3d
00000390: da81 583c 9ca0 65bd 98c6 5dbd 75a7 06bd
000003a0: a4bf 143d e248 07bd 7f01 43bb 7542 62bd
000003b0: 4c73 9f3d 9954 883d 161c 70bd 53eb 75bc
000003c0: 59eb bfbd 86cc 75bd d5b2 103d 6f2e 213c
000003d0: afd1 8c3c 1b10 c83c 44b5 3e3d 803c 853d
000003e0: 6d48 66bb 0a05 7ebc 245b 783d 23b3 223d
000003f0: e3b6 3a3c a840 adbb edda 5ebd 1ac0 68bd

fc2.bias f4 [300]
0.07332476 0.05554382 0.035647687 0.014628157 0.039252017 0.063002184 0.011319992 0.022339338
0.028865496 -0.005845029 0.053403053 0.022336308 0.05874321 0.020719733 0.043973435 0.011874785
0.00650759 0.054976225 0.040416297 0.038324255 -0.039383736 -0.028470002 0.03172428 -0.003384699
0.058170155 0.10372147 0.017484318 -0.04469002 -0.00947172 0.08015849 0.06232216 -0.027713208
0.09686399 0.035791874 0.063484944 0.037171666 -0.006894513 0.066634245 -0.038454857 -0.0009348988
-0.024910407 0.004405007 0.054032385 0.00019407611 0.008606053 0.088372424 -0.028773146 -0.013091905
0.011301838 0.018628597 0.02392863 -0.025921177 -0.035057537 0.033733055 0.00088110485 -0.003204052
0.052769236 0.029139683 0.025479695 0.0018602423 0.052849445 0.00028982546 -0.01168875 -0.06822269
-0.012117359 -0.023995468 0.045048043 -0.0101556275 0.020924183 0.043581482 0.05039394 -0.03123329
0.01555632 0.04154776 0.07021076 0.040659536 0.050840434 -0.0010293452 0.04804516 0.01099455
0.015257428 -0.027396256 -0.027563216 -0.013434906 -0.024939109 0.01922785 -0.008858908 0.008986118
-0.029056836 0.038634386 -0.045897055 -0.007144587 0.02276169 0.0024872804 0.026969986 -0.0023930632
0.016887082 0.023327917 -0.0055704606 0.07060291 -0.0024691932 -0.0045107305 0.04191921 -0.059554234
0.016550127 -0.00505342 -0.022063067 -0.026050009 0.039614383 -0.0053091454 0.07148476 -0.01371451
0.11045719 0.04604743 0.026552062 -0.05449432 0.10584159 0.01455451 0.06030677 -0.021636399
0.0590355 -0.021369196 -0.04384114 0.08263455 -0.016927887 0.018444471 0.029870484 0.018818852
0.042425133 0.024961714 0.049767002 0.016577693 0.0047046286 -0.047269493 -0.0046653952 0.046258315
0.06265629 -0.05789437 -0.0017910254 -0.021235697 0.02219885 0.024052557 -0.014021407 0.051471025
0.026064197 0.030847834 -0.005444877 -0.013131564 -0.0019885364 0.10508388 0.015348149 0.01184125
-0.010822877 -0.010264372 -0.0126422625 0.011492129 -0.034406845 -0.011699775 0.037552614 0.03593382
-0.06398197 0.0059046233 0.062263142 0.0346668 -0.005558053 -0.019780992 0.16417423 -0.019664358
0.07432007 0.0064995275 0.052897137 0.05537631 -0.006022321 0.011972768 0.05709363 0.015873479
0.10597924 0.049130466 -0.022987284 -0.06574027 0.023095261 0.043425377 0.08615479 0.061423857
0.007963648 0.024734886 -0.027272621 -0.0019652324 0.03593417 -0.048929963 0.00088937924 0.01836372
0.0778171 0.011379413 0.08088598 -0.01594052 -0.00836792 0.040547777 0.01980492 0.064498216
0.08899934 0.045886364 -0.0014166115 0.03464282 -0.032992613 0.033438288 0.035750285 0.017931914
0.0070268163 0.034867257 -0.027044998 0.07031301 -0.005194827 0.012652557 -0.021456156 0.09176111
0.0045735305 0.007984775 0.0048628845 -0.064178705 0.006539424 0.0204631 0.027402855 0.041879527
-0.0021382235 -0.026482772 0.041130286 0.004072799 0.061375737 0.026880339 0.058882337 0.0093689235
-0.04681019 0.032545887 -0.008989553 -0.0011570932 -0.04900408 0.020918611 0.06682404 0.05764901
-0.013866904 0.031378865 0.05397873 -0.035371765 0.025458282 -0.02188171 0.07509073 -0.021954563
-0.020206407 0.11896881 0.06422742 -0.0280277 0.019987807 0.08671408 -0.051071133 0.025603719
00000000: 4b2b 963d eb81 633d 4f03 123d f0aa 6f3c
00000010: b9c6 203d 4a07 813d 7d77 393c fd00 b73c
00000020: 5577 ec3c a887 bfbb 29bd 5a3d a2fa b63c
00000030: b89c 703d 6ebc a93c 7d1d 343d 758e 423c
00000040: 9f3d d53b c02e 613d 8f8b 253d e5f9 1c3d
00000050: d750 21bd ec39 e9bc 52f1 013d d4d1 5dbb
00000060: d443 6e3d ec6b d43d 463b 8f3c e20c 37bd
00000070: 462f 1bbc 222a a43d 8545 7f3d cf06 e3bc
00000080: a160 c63d 809a 123d 6504 823d 5141 183d
00000090: 5eeb e1bb 8977 883d d782 1dbd ff13 75ba
000000a0: e910 ccbc e157 903b 1051 5d3d e980 4b39
000000b0: 6700 0d3c 9afc b43d a9b5 ebbc 6e7f 56bc
000000c0: 582b 393c 009b 983c f905 c43c a658 d4bc
000000d0: 7e98 0fbd ac2b 0a3d f2f9 663a 13fb 51bb
000000e0: 8e24 583d 58b6 ee3c cbba d03c 60d3 f33a
000000f0: a978 583d b7f3 9739 2c82 3fbc 56b8 8bbd
00000100: e387 46bc 2592 c4bc 4c84 383d ca63 26bc
00000110: 3169 ab3c 7f82 323d e069 4e3d f5dc ffbc
00000120: efdf 7e3c fc2d 2a3d a9ca 8f3d 9d8a 263d
00000130: 0f3e 503d 18eb 86ba 00cb 443d 7c22 343c
00000140: 4bfa 793c 1d6e e0bc 41cc e1bc 141e 5cbc
00000150: 1a4d ccbc b983 9d3c f424 11bc 833a 133c
00000160: 9a08 eebc 173f 1e3d 8dfe 3bbd 241d eabb
00000170: b976 ba3c a401 233b 29f0 dc3c f0d4 1cbb
00000180: c756 8a3c 301a bf3c 6988 b6bb 4298 903d
00000190: 30d2 21bb c0ce 93bb 7ab3 2b3d 24ef 73bd
000001a0: 2294 873c 2997 a5bb 9bbd b4bc d466 d5bc
000001b0: b142 223d 57f8 adbb 9a66 923d d3b2 60bc
000001c0: 6137 e23d 3b9c 3c3d b683 d93c 7035 5fbd
000001d0: 7ac3 d83d 0a76 6e3c 3b04 773d d13e b1bc
000001e0: 35cf 713d 740e afbc c492 33bd 4e3c a93d
000001f0: 5aac 8abc dc18 973c f2b2 f43c fe29 9a3c
00000200: fac5 2d3d 827c cc3c 7cd8 4b3d f1cd 873c
00000210: 4929 9a3b a89d 41bd 2ce0 98bb 5c79 3d3d
00000220: f151 803d a622 6dbd d7c0 eaba 7cf6 adbc
00000230: 5dda b53c de09 c53c 0bba 65bc 48d3 523d
00000240: 9584 d53c 99b4 fc3c f06a b2bb c525 57bc
00000250: 1b52 02bb 3836 d73d ce76 7b3c cd01 423c
00000260: 7052 31bc e62b 28bc 7e21 4fbc 7c49 3c3c
00000270: 31ee 0cbd 6ab0 3fbc c5d0 193d 572f 133d
00000280: fb08 83bd 927b c13b a307 7f3d c6fe 0d3d
00000290: 5420 b6bb bf0b a2bc 4a1d 283e 2617 a1bc
000002a0: 1f35 983d fdf9 d43b abaa 583d 45d2 623d
000002b0: e456 c5bb 6e29 443c 03db 693d 1909 823c
000002c0: a50b d93d 073d 493d d44f bcbc d6a2 86bd
000002d0: 4632 bd3c cfde 313d ec71 b03d 9597 7b3d
000002e0: f679 023c d1a0 ca3c d56a dfbc 21cb 00bb
000002f0: b52f 133d c96a 48bd 3b25 693a 836f 963c
00000300: 925e 9f3d b870 3a3c 8ca7 a53d b295 82bc
00000310: 9a19 09bc 6d15 263d ed3d a23c a417 843d
00000320: 4945 b63d 57f3 3b3d 98ad b9ba a1e5 0d3d
00000330: 4323 07bd 96f6 083d e46e 123d f3e5 923c
00000340: 3541 e63b f8d0 0e3d 798d ddbc 4400 903d
00000350: 5e39 aabb ac4c 4f3c d2c4 afbc 40ed bb3d
00000360: 8edd 953b 93d2 023c d558 9f3b 2070 83bd
00000370: aa48 d63b 3ba2 a73c f47b e03c de89 2b3d
00000380: 7021 0cbb 66f2 d8bc 3b78 283d 1d75 853b
00000390: 2065 7b3d 2834 dc3c 9b2e 713d 1d80 193c
000003a0: 0bbc 3fbd d64e 053d eb48 13bc 9ba9 97ba
000003b0: 81b8 48bd 825d ab3c 0bdb 883d 5e21 6c3d
000003c0: 0332 63bc 2087 003d cd18 5d3d fce1 10bd
000003d0: e38d d03c 4641 b3bc 2bc9 993d 0eda b3bc
000003e0: e887 a5bc eba5 f33d aa89 833d 599a e5bc
000003f0: 78bd a33c 2797 b13d f72f 51bd e4be d13c

fc3.weight f4 [2, 300]
0.10230099 -0.073207684 -0.021799648 -0.031328537 0.024586547 0.10478088 0.013527315 0.09531392
0.12775218 0.058187906 0.116647184 0.07877372 0.12773564 -0.018427154 0.04035377 0.07242312
0.05405835 0.084095456 -0.022283215 0.0016956083 0.056416754 -0.035696182 0.06711584 -0.020862151
0.08173945 0.06864257 0.122895196 -0.024096424 -0.01997067 0.122290775 0.055999327 -0.0321368
0.09758182 -0.0013425025 0.039236758 -0.06840477 0.028409334 0.050117824 0.036745742 -0.050457776
-0.038328283 0.019507803 0.06737183 0.029201005 -0.021702874 0.027507538 -0.029214222 0.06721283
-0.02737976 -0.025295528 0.038443945 -0.0058143805 -0.030625274 0.08287149 0.11671995 -0.024012938
0.100947075 -0.021276604 0.05400476 0.09264772 0.036947902 0.045904983 0.012316564 -0.009183685
0.08464421 -0.02895162 0.12702818 0.036382735 -0.028401535 -0.01938231 0.15438883 -0.028975418
0.030249426 0.07232846 0.048710242 -0.021406893 0.07872938 0.0015572347 0.072759844 0.15277654
-0.061668556 -0.02148783 0.06457696 0.04475951 -0.09233937 0.0017406503 -0.024212508 0.10371088
-0.065901734 0.09393357 -0.14230363 -0.04515104 0.24584673 0.06254891 -0.049698647 -0.021910423
-0.02214147 0.16093865 0.07729484 0.10188112 0.028463885 0.14340523 0.11652708 -0.17283536
0.13977757 -0.030263698 0.05672004 -0.034076247 0.04541992 0.010484993 0.0055952324 0.21609634
0.012382869 0.081061 0.16976734 -0.1826281 0.092259854 -0.038225774 0.060136106 -0.049363725
-0.040261995 0.14470188 -0.02453243 0.1811201 -0.024341477 0.04517796 0.18554974 -0.029264962
0.04241855 -0.018704442 -0.031316694 0.0733835 0.07896205 -0.1310574 0.15088233 -0.023456072
-0.05163941 0.044368666 -0.056336567 0.04572204 -0.025658535 0.11416268 -0.02254636 0.09509646
0.013093178 -0.12731378 -0.026213326 -0.043214187 0.024211936 0.11249178 -0.05570447 -0.030216109
0.17097846 0.0338259 0.0709158 0.060661096 0.01623076 -0.07484107 -0.031033948 -0.02768579
-0.010216808 0.09428526 0.100225314 0.1334945 0.010264331 -0.004441052 0.1811425 -0.028315028
0.053034015 0.22375514 0.22258388 0.12390674 -0.030283445 -0.015638761 0.10752164 -0.061534572
0.06526679 0.06525321 -0.0281227 -0.11419109 -0.01836004 0.14564253 0.110749304 0.041565727
-0.008137236 -0.015100239 0.026108507 0.107434206 -0.021309908 -0.020815507 -0.032686055 -0.08189826
0.02568752 -0.03470285 0.082003504 -0.02883101 0.11686236 -0.01802275 0.25025606 0.10800517
-0.015351662 -0.020981072 0.04227407 -0.03275051 -0.020723147 -0.010960098 0.06321025 0.086549565
0.05389184 0.049348008 -0.026759489 0.24637343 -0.01730833 0.12525396 -0.026161937 -0.0055016037
0.037394013 -0.0072006737 0.08482143 -0.024024926 0.04590509 0.06614923 0.106157415 0.24279347
-0.061436243 -0.021354385 0.07697548 -0.023856774 0.11377103 0.1931538 0.16872245 0.09453001
-0.07043305 -0.07079149 -0.07856655 -0.04516146 -0.01885848 0.17820778 0.03614874 0.04733689
0.14612973 -0.023670861 0.069045074 -0.034327026 0.11850951 -0.034167144 0.17807655 -0.028572366
0.014776544 0.07607451 0.05616454 -0.018655602 -0.025405873 0.043214355 -0.09688185 0.046612203
00000000: 2e83 d13d e9ed 95bd 2d95 b2bc 5a52 00bd
00000010: ba69 c93c 5c97 d63d aca1 5d3c f233 c33d
00000020: 78d1 023e 7156 6e3d b8e4 ee3d 1e54 a13d
00000030: 22cd 023e 8bf4 96bc ff49 253d 9352 943d
00000040: 4a6c 5d3d 3d3a ac3d 4a8b b6bc 2c3f de3a
00000050: 4115 673d 2936 12bd 0874 893d 1ae7 aabc
00000060: 0367 a73d 7a94 8c3d 7ab0 fb3d dd65 c5bc
00000070: 8899 a3bc 9673 fa3d 8d5f 653d e1a1 03bd
00000080: fad8 c73d e9f6 afba b9b6 203d cd17 8cbd
00000090: b1ba e83c 5948 4d3d b482 163d d0ac 4ebd
000000a0: 1efe 1cbd d4ce 9f3c 3efa 893d f236 ef3c
000000b0: 3aca b1bc 7d57 e13c aa52 efbc e1a6 893d
000000c0: 854b e0bc 9138 cfbc 6677 1d3d 8f86 bebb
000000d0: dbe1 fabc 87b8 a93d df0a ef3d c8b6 c4bc
000000e0: 57bd ce3d 464c aebc 1834 5d3d 16be bd3d
000000f0: af56 173d dd06 3c3d 6acb 493c 2b77 16bc
00000100: f259 ad3d f32b edbc ad13 023e 1006 153d
00000110: 56aa e8bc a6c7 9ebc 1b18 1e3e db5d edbc
00000120: a5cd f73c f220 943d 6484 473d 825d afbc
00000130: df3c a13d 201c cc3a 1d03 953d 7471 1c3e
00000140: 2b98 7cbd 3f07 b0bc ed40 843d bf55 373d
00000150: 6c1c bdbd 8826 e43a 4f59 c6bc 5f66 d43d
00000160: 7df7 86bd 3e60 c03d 0bb8 11be 4cf0 38bd
00000170: 3fbf 7b3e a519 803d cf90 4bbd 7d7d b3bc
00000180: 0762 b5bc 1acd 243e c24c 9e3d 0ca7 d03d
00000190: 182d e93c d2d8 123e c0a5 ee3d c1fb 30be
000001a0: da21 0f3e 93eb f7bc 4653 683d 8993 0bbd
000001b0: 3d0a 3a3d 40c9 2b3c 3658 b73b 5c48 5d3e
000001c0: 84e1 4a3c 4f03 a63d 7dd7 2d3e dc02 3bbe
000001d0: bcf2 bc3d a192 1cbd 4751 763d 9e31 4abd
000001e0: c3e9 24bd bb2c 143e 3cf8 c8bc 8c77 393e
000001f0: c767 c7bc 860c 393d c000 3e3e 13bd efbc
00000200: 13bf 2d3d 0f3a 99bc ef45 00bd 174a 963d
00000210: dbb6 a13d e933 06be e680 1a3e f326 c0bc
00000220: d983 53bd ebbb 353d 2cc1 66bd 0947 3b3d
00000230: d931 d2bc 20ce e93d 25b3 b8bc efc1 c23d
00000240: c584 563c 8b5e 02be 54bd d6bc 5c01 31bd
00000250: 1c58 c63c 1762 e63d 5f2a 64bd c687 f7bc
00000260: fa14 2f3e 078d 0a3d 4e3c 913d c577 783d
00000270: 5ff6 843c 4646 99bd e83a febc 4fcd e2bc
00000280: 6664 27bc a118 c13d ee42 cd3d c8b2 083e
00000290: b92b 283c 3f86 91bb 6b7d 393e ebf4 e7bc
000002a0: 323a 593d 1120 653e 07ed 633e d1c2 fd3d
000002b0: fd14 f8bc dc1c 80bc 4e34 dc3d ad0b 7cbd
000002c0: 98aa 853d 7aa3 853d 9461 e6bc 05dd e9bd
000002d0: cb67 96bc 5123 153e 88d0 e23d d340 2a3d
000002e0: 0b52 05bc fe66 77bc 82e1 d53c 7706 dc3d
000002f0: 1e92 aebc 4885 aabc d0e1 05bd 46ba a7bd
00000300: a26e d23c 9324 0ebd 74f1 a73d 032f ecbc
00000310: 8855 ef3d 72a4 93bc 9021 803e d131 dd3d
00000320: 8a85 7bbc 7fe0 abbc 9327 2d3d 6625 06bd
00000330: 97c3 a9bc fc91 33bc 6074 813d e640 b13d
00000340: b1bd 5c3d 2321 4a3d b736 dbbc 5149 7c3e
00000350: 33ca 8dbc 9342 003e 8f51 d6bc cc46 b4bb
00000360: 772a 193d a1f3 ebbb dcb6 ad3d eccf c4bc
00000370: fa06 3c3d 3f79 873d 0f69 d93d da9e 783e
00000380: 92a4 7bbd 64ef aebc 52a5 9d3d 486f c3bc
00000390: c900 e93d 1cca 453e 94c5 2c3e f398 c13d
000003a0: 343f 90bd 21fb 90bd 80e7 a0bd 39fb 38bd
000003b0: 197d 9abc 1a7c 363e b410 143d 54e4 413d
000003c0: 08a3 153e 65e9 c1bc 8167 8d3d 7f9a 0cbd
000003d0: 1db5 f23d d9f2 0bbd b359 363e 9810 eabc
000003e0: 5119 723c f4cc 9b3d ca0c 663d a2d3 98bc
000003f0: fa1f d0bc 8901 313d fe69 c6bd 70ec 3e3d

fc3.bias f4 [2]
0.033898603 0.032386716
00000000: 43d9 0a3d efa7 043d
