p3_collab-compet/checkpoint_critic.pth (torch_old, 525862 bytes, 5 tensors)

fcs1.weight f4 [400, 24]
0	0x3c7bb296	0.015362402
1	0xbcc6ee97	-0.02428369
2	0x39b9acb9	0.00035414638
3	0xbc998bc3	-0.018743401
4	0x3d11d588	0.03560403
5	0xbd3bc21b	-0.04583941
6	0x3bd6e6ff	0.0065582986
7	0xbc0b1223	-0.008488211
8	0x3ca68ed9	0.020331787
9	0xbabfe157	-0.00146393
10	0x3bc0afa1	0.0058803116
11	0x3cb2dc2c	0.021833502
12	0x3d4411af	0.047868427
13	0xbc28763a	-0.010282094
14	0x3c99677d	0.018726105
15	0x3d4e5301	0.050372127
16	0x3aa3a422	0.0012484828
17	0xbc54396e	-0.012953145
18	0xbca8b618	-0.020594642
19	0x3b9bc127	0.00475325
20	0xbd241f26	-0.040068768
21	0xbda7dbad	-0.08196197
22	0x3cbba56e	0.022906031
23	0xbbb96b0e	-0.005658514
24	0x3d1bfcfe	0.03808307
25	0x3d392099	0.045197103
26	0xbc9294be	-0.017893191
27	0xbb6f01ae	-0.0036469507
28	0xbd0a19e0	-0.033716083
29	0x3ca52e22	0.0201636
30	0xbc35dee7	-0.011100507
31	0x3b033853	0.0020022586
32	0xbc328884	-0.010896806
33	0x3d398608	0.045293838
34	0xbca5fc87	-0.020262016
35	0x3cab8361	0.02093667
36	0xbd2da739	-0.042395804
37	0xbd0e8413	-0.034793925
38	0x3c937950	0.018002182
39	0x3c8f590b	0.017498514
40	0x3c9c93b2	0.019113395
41	0x3d2591bd	0.04042219
42	0xbc260fc1	-0.010135592
43	0xbbdbd5dc	-0.0067088436
44	0x3c32c9f0	0.010912403
45	0xbd98157f	-0.07425975
46	0xbcee0ac1	-0.029057862
47	0xbc614c8e	-0.013751162
48	0x3cbf24a9	0.02333291
49	0x3cd8ffae	0.026489105
50	0xbcfe0277	-0.031007035
51	0x3cb464a2	0.022020642
52	0x3d828d10	0.06374562
53	0xbd3a6709	-0.04550842
54	0x3cd9e87a	0.026600111
55	0x3bcdbfab	0.006278952
56	0xbb4bf5bd	-0.0031121813
57	0xbb3daa51	-0.0028940628
58	0x3d02623a	0.031831957
59	0x3a067cb3	0.0005130276
60	0x3dcca3fc	0.09992215
61	0xbc8a7814	-0.01690296
62	0xbbe55cda	-0.006999594
63	0xbcec6f6f	-0.02886173
64	0xbd1d0e1a	-0.038343526
65	0x3b85a04e	0.0040779477
66	0xbc839c91	-0.016065868
67	0x3ae827b3	0.0017712027
68	0x3c1a99e1	0.009436102
69	0x3dcbfea5	0.09960679
70	0xbc304efa	-0.010761017
71	0xbca633d1	-0.02028838
72	0xbb4fbe83	-0.0031699247
73	0xbb01ca94	-0.0019804584
74	0x3c4231df	0.0118527105
75	0x3d28108b	0.0410314
76	0xbcbdd0d4	-0.023170866
77	0x3c1060bc	0.008812126
78	0x3c8bae4e	0.017050888
79	0x3cf36230	0.029709905
80	0x3d455a67	0.048181918
81	0xbc6399c7	-0.013891644
82	0xbd00466b	-0.031317156
83	0xbc9c6c3b	-0.019094577
84	0xbd329169	-0.043595705
85	0x3cc9272b	0.02455481
86	0x3d031750	0.032004654
87	0xbb2c7528	-0.0026314948
88	0x3d613d39	0.054990027
89	0xbd5321d7	-0.051545944
90	0x3cb7d80c	0.022441886
91	0xbd5fc420	-0.0546304
92	0xbd3fd824	-0.046836987
93	0xbd8678a8	-0.06565982
94	0xbbd699ce	-0.0065490967
95	0x3ad9e11b	0.0016622873
96	0xbd2d6ddf	-0.04234111
97	0xbc5b9d01	-0.013404132
98	0x3cc1e459	0.023668455
99	0x3c090569	0.008363106
100	0x3d367a23	0.044550072
101	0xbc9e1a30	-0.019299597
102	0xbcaf5fe6	-0.021408033
103	0x393fa573	0.00018276814
104	0xbcac387d	-0.02102303
105	0xbd30aa8f	-0.043131407
106	0xbd125376	-0.035724126
107	0x3c2cf473	0.010556328
108	0x3cd4fe2a	0.026000101
109	0x3c6f9122	0.014622005
110	0x3d0f7701	0.0350256
111	0xbb21b6a4	-0.0024675513
112	0x3bfc670a	0.007702713
113	0xbd401f51	-0.046904866
114	0x3c4729fd	0.012156007
115	0x3c401fe8	0.011726357
116	0xbdc25092	-0.09488024
117	0xbd235942	-0.039880045
118	0xbc4d35b2	-0.012525009
119	0x3addd6ff	0.0016925036
120	0x3d328c14	0.04359062
121	0x3af79358	0.0018888516
122	0x3aec1cca	0.0018013951
123	0xbcb7a9af	-0.022419779
124	0xbcdadcf1	-0.026716681
125	0xbb573452	-0.0032837582
126	0xbb066555	-0.0020507176
127	0xbcb15ad2	-0.021649752
128	0x3c5706a0	0.013124138
129	0xbc379e4b	-0.011207174
130	0xbc068087	-0.008209354
131	0x3d060168	0.032716185
132	0xbcba9ffa	-0.02278136
133	0x3c6a20a9	0.014290013
134	0x3d0d3b42	0.03448034
135	0xbc5335ef	-0.012891277
136	0x3c97bc72	0.018522475
137	0xbcc0f8a9	-0.02355607
138	0x3bfbbe46	0.0076825945
139	0xbc9a44f0	-0.0188317
140	0xbbcd8ada	-0.006272656
141	0x3d92b1ce	0.0716282
142	0x3c1a69ec	0.009424668
143	0x3c2219a7	0.009893811
144	0x3d2dccd0	0.042431653
145	0x3bec0aac	0.0072034206
146	0x3c58d952	0.013235407
147	0xbce4726f	-0.027886597
148	0xbcab5c20	-0.020917952
149	0xbd4398fb	-0.047753315
150	0x3c02f5c8	0.007993169
151	0xbcf90b90	-0.030401021
152	0xbc78fcaf	-0.015196963
153	0xbd2bfb03	-0.04198743
154	0x3c9d7153	0.019219076
155	0x3d122fac	0.035689995
156	0x3d07fc6d	0.033199716
157	0xbd822d2e	-0.063562736
158	0x3c0193bb	0.007908757
159	0x3d16d746	0.036826394
160	0xbca93ab3	-0.020657873
161	0xbc583537	-0.013196281
162	0xbc420dd7	-0.01184412
163	0xbc93ed5e	-0.018057521
164	0x3d3f2f7c	0.046676144
165	0x3d8bf272	0.06833352
166	0xbc511015	-0.012760182
167	0x3c8443d0	0.016145617
168	0xbcd6b8c0	-0.026211143
169	0xbcfb5789	-0.030681388
170	0x3c81c82e	0.015842523
171	0xbcc8454b	-0.024447104
172	0xbceccc4b	-0.028906008
173	0xbd1e67e1	-0.038673285
174	0x39f371a8	0.00046433252
175	0xbcbad462	-0.02280635
176	0x3caf1c13	0.021375692
177	0xbd36974c	-0.04457788
178	0xbd36fdcd	-0.044675637
179	0xbd130371	-0.035891954
180	0xbd1460c9	-0.036225114
181	0x3bdd4207	0.006752256
182	0x3d126d34	0.035748675
183	0xbd7f9fae	-0.06240814
184	0x3d8526c0	0.065015316
185	0xbd9323df	-0.07184576
186	0x3d018812	0.031623907
187	0xbda5e73f	-0.08100747
188	0x3d0b1689	0.033957038
189	0x3d75c50e	0.06000238
190	0xbd03e5d1	-0.032201592
191	0xbd513210	-0.051073134
192	0xbc803adc	-0.015653066
193	0x3dbd392f	0.092394225
194	0xb91c31c8	-0.00014895864
195	0x3bb7973d	0.005602746
196	0x3b9a50cc	0.004709339
197	0x3d62d178	0.055375546
198	0x3b624759	0.003452739
199	0xba28a31a	-0.00064329954
200	0xbc3c2057	-0.01148232
201	0x3db400db	0.08789226
202	0xbc3d27c1	-0.011545123
203	0xbcc9f59d	-0.02465325
204	0x3d58ed45	0.052960653
205	0x3ae66357	0.0017577213
206	0x3bd770e1	0.0065747355
207	0x3c1676a4	0.00918356
208	0x3c92b04d	0.017906332
209	0x3da8b2bd	0.082372166
210	0xbce76514	-0.02824644
211	0xbcef3c2d	-0.029203499
212	0xbc40caad	-0.011767072
213	0xbd867dc2	-0.06566955
214	0x3ce55fb7	0.027999742
215	0xbcc5eabc	-0.024159782
216	0x3d5f7fb5	0.05456515
217	0xbb470048	-0.0030365158
218	0xbcefbc25	-0.029264519
219	0xbd025d1f	-0.03182709
220	0xbd3dfe9c	-0.046385393
221	0x3c7d0e6f	0.015445336
222	0x3d296a80	0.041361332
223	0xbc2940a9	-0.010330358
224	0x3d5bea09	0.05368999
225	0xbb84ca26	-0.0040524183
226	0xbc0a4ead	-0.008441609
227	0xbbd1986d	-0.0063963444
228	0x3cda998d	0.026684547
229	0xbce6ace7	-0.028158618
230	0xbd067324	-0.03282465
231	0xbd5a191f	-0.053246614
232	0x3d4cae98	0.049971193
233	0x3d1ddaee	0.038538866
234	0xbc910b74	-0.017705657
235	0x3d8279c6	0.06370883
236	0xbdaeccc9	-0.085351534
237	0xbcea7d7e	-0.028624292
238	0x3d24d161	0.04023874
239	0x3d1acef7	0.037795033
240	0xbbca0b8d	-0.0061659277
241	0xbca4bfb4	-0.020110942
242	0x3ba7e3c7	0.0051235887
243	0xbca4be46	-0.02011026
244	0xbd11d8dd	-0.035607208
245	0x3b865668	0.004099656
246	0xbbd75e88	-0.0065725483
247	0x3c2f765d	0.010709372
248	0x3b2cb3f1	0.002635237
249	0x3a554056	0.0008134892
250	0x3cb7af02	0.022422317
251	0x3c914e9b	0.017737677
252	0xbc61c643	-0.013780179
253	0x3a48e167	0.0007662982
254	0xbce4c705	-0.027926931
255	0x3baefbde	0.0053400835

fcs1.bias f4 [400]
0	0x3da9b6c0	0.0828681
1	0x3c5b69df	0.013391941
2	0xbb4a1528	-0.0030835364
3	0x3dd2e744	0.10298017
4	0x3bf8c692	0.007592031
5	0xbc73cd03	-0.014880422
6	0xbb5f4950	-0.0034070797
7	0xbd87a69c	-0.06623575
8	0x3d49cb5f	0.049266215
9	0xbde740cd	-0.11291657
10	0xbcb5bdfc	-0.022185318
11	0xbe19aafd	-0.15006633
12	0x3cc94507	0.024569048
13	0xbca02bad	-0.019552076
14	0x3d4fbbe7	0.050716307
15	0xbdaf1225	-0.08548383
16	0xbd007bc9	-0.03136805
17	0xbdb78654	-0.08961168
18	0xbce08997	-0.027409358
19	0x3db31ad6	0.08745353
20	0xbdb9d8a2	-0.090745226
21	0x3d91c40a	0.071174696
22	0xbd006cfd	-0.03135394
23	0xbcf313a7	-0.029672457
24	0xbdf16861	-0.11787487
25	0xbe3fda97	-0.18735729
26	0xb977332f	-0.00023574823
27	0x3cfd6e8c	0.030936502
28	0xbd87879a	-0.06617661
29	0xbdb3af8e	-0.08773719
30	0x3d582ae8	0.052775294
31	0x3d236c47	0.039898183
32	0x3d38b7cd	0.04509716
33	0x3e159692	0.1460822
34	0x3b226a29	0.0024782515
35	0x3d0e5e4d	0.0347579
36	0x3d2863c3	0.041110765
37	0xbcbdab8e	-0.023153093
38	0x3d06c779	0.032905076
39	0xbdb6d4d7	-0.08927315
40	0xbc0cf561	-0.008603425
41	0x38908306	6.89086e-05
42	0x3d90d195	0.070712246
43	0xbce25f47	-0.027633322
44	0x3cb4ac58	0.022054836
45	0x3d8c5919	0.068529315
46	0x3de1fc40	0.11034441
47	0x3cc43494	0.023950852
48	0x3e115aa6	0.14194736
49	0xbda1cdeb	-0.07900604
50	0x3d034fb3	0.03205843
51	0xbd9b9b2a	-0.075979546
52	0x3c6c07b0	0.01440613
53	0x3d1a5ccb	0.03768615
54	0xbe2325d5	-0.159324
55	0x3d02cf29	0.031935845
56	0xbbdd99b0	-0.0067627057
57	0x3d9d0490	0.07666886
58	0x3e1bbfb9	0.15209855
59	0x3dd8d086	0.10586648
60	0x3b4e9ab0	0.0031525306
61	0xbc135aa4	-0.008993778
62	0xbd4d12e9	-0.050066862
63	0x3dc66067	0.09686356
64	0xbbe80526	-0.007080692
65	0x3d779aac	0.06045024
66	0xbb899e15	-0.004199753
67	0x3cd1472c	0.025546633
68	0x3d6206ad	0.055182148
69	0xbdc2d3df	-0.095130675
70	0xbe079e06	-0.13243875
71	0xbdac401a	-0.08410664
72	0x3cc5de70	0.024153918
73	0xbd56f727	-0.052481797
74	0xbe00975c	-0.12557739
75	0x3d2b5293	0.041826796
76	0x3ce0e422	0.027452532
77	0xbd315fb0	-0.043304145
78	0x3da1aa92	0.07893862
79	0x3cc77eba	0.02435242
80	0x3df0d775	0.11759845
81	0xbd4d7896	-0.050163828
82	0xbd308443	-0.043094885
83	0xbdf3dc2c	-0.11907229
84	0xbd374f77	-0.044753518
85	0xbd883398	-0.06650466
86	0x3defbea1	0.117062815
87	0xbdca252e	-0.09870373
88	0xbced3898	-0.02895765
89	0x3c29ac3b	0.010356004
90	0x3a132332	0.00056128495
91	0x3ca660bd	0.0203098
92	0xbd3750eb	-0.044754904
93	0xbd266076	-0.040619336
94	0xbc884bcb	-0.016637703
95	0x3cc2e5e8	0.023791268
96	0xbda59b56	-0.080862686
97	0x3c1bdc09	0.00951291
98	0xbd063fb3	-0.032775592
99	0xbd44a31c	-0.048007116
100	0x3d28b018	0.04118356
101	0xbe225ca8	-0.15855658
102	0xbcbb4a9e	-0.022862729
103	0xbd1421e1	-0.036165122
104	0xbd1d89e8	-0.038461596
105	0xbd9891cb	-0.07449683
106	0x3dc41e47	0.095760874
107	0xbd0b5286	-0.034014247
108	0xbd6bd5de	-0.057577007
109	0xbb8efb47	-0.0043634507
110	0xbc2da791	-0.010599033
111	0xbdb57ec3	-0.088620685
112	0x3dab45c5	0.08362917
113	0xbb1d316f	-0.0023985764
114	0xbd73fcd2	-0.05956728
115	0x3ccefd04	0.025267132
116	0xbc8cb2f3	-0.017175173
117	0x3c141345	0.009037797
118	0xbb688e6b	-0.0035485278
119	0x3dc01b45	0.09380201
120	0x3df3f2b3	0.119115256
121	0xbd0ee00e	-0.034881644
122	0x3cce615a	0.025192905
123	0xbdaf1682	-0.08549215
124	0xbd478c75	-0.048717935
125	0x3dad8f9e	0.084746584
126	0x3d0793fc	0.033100113
127	0xbd0286a5	-0.03186669
128	0xbc93bc20	-0.01803404
129	0x3ccaa2bd	0.024735803
130	0x3d71298a	0.058877505
131	0x3bf8faed	0.007598272
132	0xbd02808b	-0.03186087
133	0x3dc4380c	0.095810026
134	0x3d92bbbf	0.07164716
135	0xbc8ed53f	-0.017435668
136	0xbc5ead88	-0.013591178
137	0x3c4e8357	0.012604556
138	0x3d75180b	0.059837382
139	0xbdd383b4	-0.10327855
140	0xbd9a5d4f	-0.075373285
141	0xbdbba31e	-0.091619715
142	0x3d0466f1	0.032324735
143	0x3948e678	0.00019159343
144	0xbe1c3d67	-0.15257798
145	0x3d460f63	0.048354518
146	0xbd3c1ba6	-0.045924805
147	0xbda7db77	-0.081961565
148	0xbbbdfec1	-0.0057981913
149	0x3a97dc3b	0.001158602
150	0x3c9d8931	0.019230457
151	0xbd6fcecb	-0.058546823
152	0x3d141101	0.03614903
153	0x3cef8e6a	0.029242713
154	0x3e27e326	0.16395244
155	0xbde3a74e	-0.11115895
156	0x3c291b2e	0.010321422
157	0xbd30f9c3	-0.04320694
158	0xbd75fb47	-0.06005409
159	0x3aba38ad	0.0014207565
160	0x3e0d60d4	0.13806468
161	0xbcc4ea01	-0.024037363
162	0x3dfe45e2	0.12415673
163	0xbbcd82e2	-0.006271706
164	0xbd82ae62	-0.06380917
165	0xbc3ba284	-0.011452321
166	0x3cd3b940	0.02584517
167	0xbd43e126	-0.04782214
168	0xbc94fc2c	-0.018186651
169	0xbc7bca21	-0.0153680155
170	0xbe24adaf	-0.1608188
171	0xbd92e20e	-0.07172023
172	0xbbc7f1ad	-0.006101808
173	0x3d75467e	0.05988168
174	0xbbc72bb1	-0.0060782065
175	0x3caadb14	0.020856418
176	0xbd9fc5f6	-0.0780143
177	0xbd1b9e1b	-0.037992578
178	0xbcea7dcb	-0.028624436
179	0x3cc1fb40	0.023679376
180	0x3ddcd599	0.10782928
181	0x3c0b161f	0.008489161
182	0xbcfe19cb	-0.031018158
183	0xbe281972	-0.16415957
184	0x3ba4a7e4	0.005024897
185	0xbc4447d8	-0.0119800195
186	0xbd03f0d5	-0.032212097
187	0xbcd3fbd3	-0.025876915
188	0xbd487240	-0.048937082
189	0xbd040620	-0.032232404
190	0x3c4f7284	0.01266158
191	0x399b9eed	0.00029682313
192	0xbccad112	-0.024757896
193	0x3da45a28	0.080250084
194	0x3d798774	0.060920194
195	0x3dbed4db	0.09317943
196	0xbd89e8ae	-0.06733833
197	0xbe1f7cc0	-0.15574932
198	0x3dc08419	0.09400196
199	0xbd8c334a	-0.0684572
200	0xbd07c23a	-0.033144213
201	0x3cfa0685	0.030520687
202	0xbd6baa02	-0.05753518
203	0x3cae3ece	0.021270182
204	0xbdb528c6	-0.088456675
205	0xbd373dd4	-0.0447367
206	0xbc184b71	-0.00929533
207	0xbc2f494a	-0.010698626
208	0x3dfc79db	0.123279296
209	0xbde93c4e	-0.11388455
210	0x3d40b268	0.04704514
211	0xbcaf05a8	-0.021365002
212	0xbdd5eed4	-0.104459435
213	0x3d6266ed	0.05527394
214	0xbdea5c2f	-0.11443364
215	0xbac0687c	-0.0014679576
216	0xbbd8c026	-0.0066147028
217	0xbd980752	-0.07423271
218	0xbdd904ff	-0.10596656
219	0x3d80494b	0.062639795
220	0xbe0c8cf3	-0.13725643
221	0x3cdfaebc	0.027305
222	0x3d197565	0.03746547
223	0xbb4fb6c9	-0.0031694642
224	0x3c9c1d13	0.019056832
225	0xbd558d62	-0.052136786
226	0xbca79b29	-0.020459728
227	0xbdbd49bd	-0.0924258
228	0x3dcb4f57	0.09927242
229	0xbe0d85e3	-0.13820605
230	0xbb23db0e	-0.0025002393
231	0xbd2ce868	-0.042213827
232	0xbb6b23e8	-0.0035879556
233	0xbbd1bc44	-0.006400617
234	0x3c21f06a	0.009883979
235	0x3cd7fe88	0.026366487
236	0x3c9f09dd	0.019413883
237	0xbc0cfcdf	-0.008605211
238	0x3c6fd291	0.014637605
239	0xbd42a9e9	-0.04752532
240	0xbcc1ca70	-0.0236561
241	0x3d2dc02d	0.0424196
242	0xbc406b3f	-0.011744319
243	0xbcf6702c	-0.030082785
244	0x3c30ec17	0.010798476
245	0x3be69cba	0.007037726
246	0x3ca8561b	0.02054887
247	0x3ce41da8	0.027846172
248	0x3cf6cacc	0.030125998
249	0xbe1b6363	-0.15174632
250	0xbdd2d101	-0.102937706
251	0xbe27eb54	-0.16398364
252	0x3dea57be	0.11442517
253	0x3d887631	0.06663168
254	0xbd5c4974	-0.053780988
255	0xbd7d1659	-0.06178889

fc2.weight f4 [300, 402]
0	0x00002e3f	1.659e-41
1	0x9eaf9a84	-1.8592752e-20
2	0xaee26824	-1.0295789e-10
3	0xaa2abdd2	-1.516489e-13
4	0xaf4a067a	-1.8374094e-10
5	0xa53e3d4a	-1.6500639e-16
6	0xa553eb13	-1.8380979e-16
7	0xa782a434	-3.6260278e-15
8	0x8000ae9e	-6.2641e-41
9	0x8be4aafb	-8.807967e-32
10	0xa4856c3c	-5.786291e-17
11	0xa833e6da	-9.986554e-15
12	0x980a1ef0	-1.7851701e-24
13	0x95d0c131	-8.4315333e-26
14	0xa47b732e	-5.452451e-17
15	0xa53bd733	-1.6292577e-16
16	0x8f27a917	-8.266301e-30
17	0xafd5207b	-3.8767553e-10
18	0x9b88d6f2	-2.2638218e-22
19	0x81b8ac34	-6.7838025e-38
20	0x9809f1cf	-1.7828917e-24
21	0xa84d6a89	-1.1402887e-14
22	0xac83c5af	-3.7451912e-12
23	0xa1ca8c9f	-1.3725275e-18
24	0xb10924a4	-1.9956952e-09
25	0x9fe7b1ef	-9.812667e-20
26	0xb287aac3	-1.5793722e-08
27	0xb08a041e	-1.0041992e-09
28	0xb0016dee	-4.7086146e-10
29	0xafa16685	-2.9358574e-10
30	0xb2bcc91f	-2.197754e-08
31	0xb12d805b	-2.5247775e-09
32	0xa956d82e	-4.770505e-14
33	0xabdb1a03	-1.5568106e-12
34	0x8bdde7aa	-8.547467e-32
35	0x800091b0	-5.2263e-41
36	0xa4b8df1a	-8.017523e-17
37	0x8cb1851f	-2.7351287e-31
38	0xa508f65a	-1.1879587e-16
39	0x9b4887b0	-1.6587455e-22
40	0x95f07e2e	-9.7134304e-26
41	0x824d0759	-1.506313e-37
42	0x8ad4c6b7	-2.0489606e-32
43	0xa1ce5305	-1.3981078e-18
44	0x9130afb4	-1.3938095e-28
45	0xb1f0d94f	-7.0096244e-09
46	0xa3788ee6	-1.3474367e-17
47	0x903da043	-3.739714e-29
48	0x979d1f0e	-1.01537265e-24
49	0x0000b9f0	6.6702e-41
50	0xa41682f2	-3.263698e-17
51	0x8b57b8af	-4.1546434e-32
52	0x977bfb82	-8.141992e-25
53	0x8000b811	-6.603e-41
54	0xa6411bc7	-6.699797e-16
55	0xa8a9e31f	-1.8861267e-14
56	0xa5a58487	-2.8712741e-16
57	0xa1a7421b	-1.1333858e-18
58	0x979bbc13	-1.0064117e-24
59	0xa6d42513	-1.4720504e-15
60	0xa9bcb26b	-8.379828e-14
61	0x9ff27486	-1.0268376e-19
62	0xb089df81	-1.0031586e-09
63	0x28f7cd79	2.7511618e-14
64	0x8dd56e40	-1.315368e-30
65	0xab137d79	-5.239902e-13
66	0xa69a8626	-1.0722258e-15
67	0x28d1eb27	2.3305642e-14
68	0x041ad2cb	1.8199404e-36
69	0xb074c692	-8.904887e-10
70	0xb17f1780	-3.7120742e-09
71	0x00005ec3	3.3994e-41
72	0xad06b25a	-7.65662e-12
73	0x9a2d5ca9	-3.5850412e-23
74	0xa95b5992	-4.870546e-14
75	0x00001f39	1.12e-41
76	0xa09292a3	-2.4830398e-19
77	0xb4d8d6e1	-4.038948e-07
78	0xac49372f	-2.859445e-12
79	0xa1a5349b	-1.1194759e-18
80	0xac3b72a0	-2.6637928e-12
81	0xaf93547a	-2.6799168e-10
82	0xa184ddc9	-9.003374e-19
83	0x2374be31	1.3267541e-17
84	0xaaa5fda2	-2.948588e-13
85	0xa853cbd3	-1.175705e-14
86	0xb05ba1f3	-7.990188e-10
87	0x98c87547	-5.181721e-24
88	0x00002094	1.1687e-41
89	0xacdb91d0	-6.240543e-12
90	0xa140c9b0	-6.531906e-19
91	0x9907ab18	-7.0138885e-24
92	0x9ae08e06	-9.287368e-23
93	0x991b4e6d	-8.02915e-24
94	0x28298a30	9.411349e-15
95	0x97f2b33c	-1.5684129e-24
96	0xa81a9e30	-8.583019e-15
97	0xa8812e42	-1.4341938e-14
98	0xa0be90fb	-3.2283192e-19
99	0xb20dd919	-8.2566425e-09
100	0x28885a24	1.5138125e-14
101	0xab835afe	-9.333365e-13
102	0x9f8a4ef2	-5.857588e-20
103	0xa4342322	-3.9061037e-17
104	0xa7a08c57	-4.4561078e-15
105	0xa82b10da	-9.496061e-15
106	0x800038a2	-2.0316e-41
107	0x9a3e5bdd	-3.9365286e-23
108	0xae54c5a1	-4.837875e-11
109	0xaeb93be8	-8.4234675e-11
110	0x9be5bc11	-3.8006407e-22
111	0x271320ab	2.0418057e-15
112	0xa4946adf	-6.4365815e-17
113	0xa6b66431	-1.2655944e-15
114	0xa85c7d86	-1.2239672e-14
115	0x9de1ebd9	-5.9800865e-21
116	0x9508536c	-2.753079e-26
117	0xad79a429	-1.4190462e-11
118	0x8ebed0ce	-4.7039688e-30
119	0xaf803a48	-2.3324476e-10
120	0xadcec6f0	-2.3507835e-11
121	0xa6a71f2c	-1.1596402e-15
122	0x800064f9	-3.6222e-41
123	0x254118c8	1.6748478e-16
124	0xa8b35df8	-1.9913745e-14
125	0x9497fab6	-1.5345992e-26
126	0xb261bb8a	-1.3139365e-08
127	0x9d9eeb39	-4.2065466e-21
128	0x877dd0cf	-1.9094968e-34
129	0xae3d81e4	-4.308899e-11
130	0xa2ecceb4	-6.4186784e-18
131	0xb01cb9e6	-5.7016647e-10
132	0xaa62c351	-2.0140596e-13
133	0xa3490a9d	-1.0898479e-17
134	0xa432c433	-3.8763785e-17
135	0xad2abed4	-9.7057536e-12
136	0x22032a12	1.7776082e-18
137	0xa9dedc6e	-9.897019e-14
138	0x166f7fe4	1.9346621e-25
139	0x9b27b93d	-1.387377e-22
140	0xae303129	-4.006143e-11
141	0xb49bc5de	-2.9014967e-07
142	0xa8524662	-1.1672604e-14
143	0xa4637d92	-4.932914e-17
144	0xb001aefd	-4.71786e-10
145	0xa621e051	-5.61621e-16
146	0x99ca122a	-2.0893647e-23
147	0x94184523	-7.687674e-27
148	0x0d778bde	7.628111e-31
149	0xa33899d3	-1.00072335e-17
150	0xab8a62ad	-9.832878e-13
151	0xa7adc2a6	-4.8228184e-15
152	0xac302355	-2.5030718e-12
153	0xab71e3f4	-8.593675e-13
154	0xa1b024ec	-1.1935997e-18
155	0x9eaacdcf	-1.808457e-20
156	0xace836e7	-6.599932e-12
157	0x0000b662	6.5427e-41
158	0x99216f2f	-8.345958e-24
159	0x9ec2eb80	-2.063795e-20
160	0x00009ee3	5.6998e-41
161	0xaf47726d	-1.8139597e-10
162	0x000040d0	2.325e-41
163	0xab3aca28	-6.636102e-13
164	0x9f4ef6b9	-4.382628e-20
165	0x0d22cfdb	5.01703e-31
166	0xa0cc1f2b	-3.457957e-19
167	0xa88be5c2	-1.5531742e-14
168	0x90a17971	-6.369041e-29
169	0xa86bf717	-1.30987e-14
170	0xa71fc691	-2.2173326e-15
171	0x98a09d44	-4.151783e-24
172	0x9711b6e3	-4.708286e-25
173	0xad9b2c58	-1.7641152e-11
174	0x89c93f35	-4.844843e-33
175	0x9cb2c443	-1.1829784e-21
176	0xab0b2c46	-4.944416e-13
177	0xaa2724a7	-1.4845296e-13
178	0xa28af6ae	-3.7666157e-18
179	0x80029a1f	-2.38959e-40
180	0xa356f923	-1.165372e-17
181	0xa79165e3	-4.035605e-15
182	0xa324d141	-8.934769e-18
183	0xaf67e97b	-2.1092277e-10
184	0xa2dffe86	-6.071376e-18
185	0x9249a6e4	-6.3630125e-28
186	0x9a9295db	-6.062629e-23
187	0x94aecced	-1.7650339e-26
188	0xa803bc8b	-7.3128446e-15
189	0xab501851	-7.393019e-13
190	0xac5418da	-3.0140807e-12
191	0x9c10f8e5	-4.796729e-22
192	0xb0caa2aa	-1.4743666e-09
193	0xa43227cb	-3.8631303e-17
194	0x942d85d9	-8.760665e-27
195	0x0000b9a0	6.659e-41
196	0xaaad055f	-3.07347e-13
197	0xac1298be	-2.0832637e-12
198	0xa7ceda76	-5.741334e-15
199	0x000072be	4.1162e-41
200	0xb4e4ef37	-4.264236e-07
201	0xa6588dd6	-7.513228e-16
202	0xb122ec88	-2.3708555e-09
203	0xa357c7ca	-1.169748e-17
204	0x97ff6c78	-1.650637e-24
205	0xab243cc5	-5.834884e-13
206	0x02f7d043	3.6412924e-37
207	0xa4c2faf5	-8.4559226e-17
208	0xaa573b89	-1.9116491e-13
209	0xa98448f4	-5.874633e-14
210	0x9509312a	-2.7705713e-26
211	0x9dd6f3e4	-5.6897505e-21
212	0xa78d13ce	-3.9156834e-15
213	0x9b45414a	-1.6316554e-22
214	0x03a6f257	9.812242e-37
215	0xa965c9f8	-5.1023394e-14
216	0xadf9e8c5	-2.8411393e-11
217	0xae5a3ecc	-4.9623236e-11
218	0xac87c0ec	-3.8583494e-12
219	0xae3840fd	-4.1894477e-11
220	0xa743149c	-2.7072859e-15
221	0xa35ad414	-1.1862713e-17
222	0xb135a4bd	-2.643261e-09
223	0xaf2b6492	-1.5588089e-10
224	0x9ee91a2f	-2.4680664e-20
225	0xa94221e9	-4.3106066e-14
226	0xb11c0d4a	-2.2708542e-09
227	0xb0b6a8c3	-1.3290208e-09
228	0x99919849	-1.5054156e-23
229	0xacbea085	-5.417946e-12
230	0x8ec1a78f	-4.7739526e-30
231	0xad1cf711	-8.922433e-12
232	0x9b267500	-1.3769003e-22
233	0xa3753bf2	-1.32941705e-17
234	0x80002466	-1.3057e-41
235	0x1fdc6968	9.3348004e-20
236	0x8ab7e463	-1.7708169e-32
237	0x8000bb1a	-6.712e-41
238	0xaba48907	-1.1690934e-12
239	0xa5a666df	-2.8866118e-16
240	0xa138d495	-6.2622975e-19
241	0x81a55db4	-6.0745885e-38
242	0x98247054	-2.1253214e-24
243	0x88312590	-5.3308155e-34
244	0x9a12f7a0	-3.0392122e-23
245	0x9cbfcb4f	-1.2691874e-21
246	0xae548bd0	-4.8327398e-11
247	0xa96c2cbe	-5.2441334e-14
248	0xa9c5d665	-8.785749e-14
249	0xac442504	-2.7873823e-12
250	0xa2058148	-1.8093302e-18
251	0xa2b64975	-4.9408975e-18
252	0xa9dd79b8	-9.8354864e-14
253	0x9a96c55b	-6.235739e-23
254	0xa6c269a7	-1.3490091e-15
255	0xa84b5c9b	-1.1288844e-14

fc2.bias f4 [300]
0	0xb4f0cac8	-4.4851026e-07
1	0xb71de07a	-9.410194e-06
2	0xbcf2415e	-0.029572185
3	0xb1b597c3	-5.2850466e-09
4	0xbd98cec6	-0.07461314
5	0x3d1e89fb	0.038705807
6	0xb3328ec4	-4.15737e-08
7	0x3cc4acbe	0.024008151
8	0x3cc1b36b	0.023645123
9	0x3c8aa39f	0.016923724
10	0xbbae4def	-0.005319349
11	0xbac05404	-0.0014673476
12	0xbcc71301	-0.024301054
13	0x3d495abc	0.049158797
14	0xbd02ee6f	-0.03196567
15	0xa02c921e	-1.4617313e-19
16	0x3ce05b19	0.027387189
17	0x85ee070b	-2.2384e-35
18	0x3c951d9c	0.018202595
19	0xba50fb3d	-0.0007972008
20	0xbb5234e5	-0.0032074985
21	0xaa9dd76b	-2.8038279e-13
22	0xbd7475b3	-0.05968256
23	0x3ae9c4d1	0.0017835145
24	0x3cc81c87	0.024427665
25	0xbd615617	-0.055013742
26	0x3cb9f2d7	0.022698803
27	0x3d1bb0ca	0.038010396
28	0xb881c383	-6.187616e-05
29	0x3ca159ac	0.01969608
30	0x3baff595	0.005369852
31	0xbcd95f9c	-0.026534848
32	0xbb6615a3	-0.0035108111
33	0xbad15638	-0.001597113
34	0x3d2dc843	0.042427313
35	0xb38908f9	-6.381192e-08
36	0xb759b4f7	-1.2976342e-05
37	0x3cbe43ee	0.02322575
38	0x3a92af17	0.0011191097
39	0xbc6ce1bb	-0.014458115
40	0x3d6fbffe	0.058532707
41	0xb817c6ce	-3.6186357e-05
42	0xbb058d8b	-0.0020378556
43	0xb982e9f6	-0.00024969847
44	0xab020d47	-4.6203704e-13
45	0x3cde5252	0.027138863
46	0x3990f4d0	0.0002764822
47	0x3c69bce1	0.014266224
48	0x94cd38e8	-2.0722156e-26
49	0x3ca0d10b	0.01963093
50	0xbaf292e6	-0.0018506914
51	0xbd548337	-0.05188295
52	0x3b48e377	0.0030653158
53	0xbcd26f84	-0.02568794
54	0xbc8788dc	-0.016544752
55	0xba24356d	-0.00062640646
56	0xbca4d840	-0.020122647
57	0xbd0978f4	-0.033562616
58	0xbb53652b	-0.0032256346
59	0xbcb3878d	-0.021915222
60	0x3c2a9254	0.010410864
61	0xbb01d93b	-0.0019813317
62	0xbd2d2ea3	-0.042280804
63	0xbcbd35d0	-0.023096949
64	0x3bfb2ee5	0.0076655024
65	0xbc509771	-0.012731419
66	0x3d171a33	0.03689022
67	0x3d9ee41f	0.077583544
68	0xbc726869	-0.014795401
69	0x38fd32fb	0.00012073476
70	0x3cb0cfad	0.021583403
71	0xbb178d05	-0.0023124826
72	0xbb7a6670	-0.003820803
73	0xbc2fc086	-0.0107270535
74	0xbc1f2611	-0.009713666
75	0x3d625999	0.05526123
76	0xb9546271	-0.00020254568
77	0x3d33117f	0.043717857
78	0x3b964dff	0.0045869346
79	0xbcb6802b	-0.022277912
80	0xbd1be049	-0.038055692
81	0xb98afea7	-0.00026511142
82	0xb02facb5	-6.391006e-10
83	0xbc1df7ed	-0.00964163
84	0xbd4e0d55	-0.050305683
85	0xbcafb858	-0.021450207
86	0x3cd0b86e	0.025478568
87	0x3d2539c5	0.040338296
88	0xb74825be	-1.19297165e-05
89	0x3d470265	0.048586268
90	0xba28cc71	-0.00064391555
91	0x3ca2f155	0.019890467
92	0x3c077309	0.008267173
93	0xbadd72ee	-0.0016895214
94	0x3b2c6362	0.0026304354
95	0xb1403d1d	-2.7974416e-09
96	0x3be71d8d	0.0070530833
97	0xba820de6	-0.0009922355
98	0x3c9a27fb	0.018817892
99	0xb86661c6	-5.492733e-05
100	0xbd0eae9a	-0.03483448
101	0x8b25a799	-3.190393e-32
102	0xb39b2cd4	-7.225904e-08
103	0xbc79403e	-0.01521307
104	0xba4b4763	-0.0007754473
105	0xb34d15b5	-4.7750024e-08
106	0x3946eda0	0.00018971274
107	0xbb4d3b1e	-0.0031315754
108	0xbaa3418f	-0.0012455451
109	0x3d363f04	0.04449369
110	0x3d0362f6	0.0320768
111	0xbb45f9c1	-0.003020868
112	0x3c90e572	0.017687533
113	0xb60d19d3	-2.102567e-06
114	0x3d301628	0.04298988
115	0xb82265e5	-3.8718706e-05
116	0xb809ac0e	-3.2823584e-05
117	0x3cd13f6d	0.02554294
118	0xbcdc7972	-0.026913378
119	0xbcb7630e	-0.0223861
120	0x3d653563	0.055959117
121	0xbb092a3d	-0.0020929717
122	0x3d730f9d	0.05934106
123	0x39533bf2	0.0002014486
124	0xbc8c1c1e	-0.017103251
125	0x3d421f92	0.04739339
126	0x3b25c051	0.0025291631
127	0x3d1f0dd1	0.038831536
128	0xbcecfdcc	-0.028929614
129	0x3cc0f17a	0.023552645
130	0x3d34eec2	0.04417301
131	0xbcfd6120	-0.030930102
132	0x3d856186	0.06512742
133	0xbd8a2c3a	-0.06746717
134	0x3c846644	0.016162045
135	0x3ce003f8	0.027345642
136	0xbaa0628c	-0.00122364
137	0x3bd96242	0.0066340277
138	0x3bfaa96b	0.0076495907
139	0xbcb8f778	-0.02257894
140	0x3cab0897	0.02087812
141	0x391afe3f	0.00014781299
142	0xbda5e355	-0.08100001
143	0xba4d603a	-0.0007834468
144	0x3b686f42	0.0035466705
145	0xbd0dd7ec	-0.034629747
146	0x8eae7875	-4.3010308e-30
147	0xbc845e1f	-0.016158162
148	0xbaf93427	-0.0019012735
149	0xba3e448c	-0.0007258139
150	0xbad1be9e	-0.0016002243
151	0x3b48ce91	0.0030640701
152	0x3d6c0756	0.057624184
153	0xb8177be9	-3.6116606e-05
154	0x3d6ddf3f	0.058074232
155	0x3d0cb9cd	0.03435688
156	0xb1e06bd2	-6.5315158e-09
157	0x3b8e4a9a	0.0043423893
158	0xb308afa6	-3.182472e-08
159	0xbcbb7ed2	-0.022887621
160	0x3cc4602a	0.023971636
161	0x3ca88eec	0.020575963
162	0xbc7d447d	-0.015458223
163	0x3cdf8798	0.027286336
164	0xbd7baa6f	-0.061441835
165	0xbaa1a73e	-0.0012333167
166	0xbc1391e4	-0.009006951
167	0xba567599	-0.00081809756
168	0xbd20ca4a	-0.039255418
169	0xba4429b8	-0.0007483023
170	0xbadb3150	-0.001672307
171	0xbb2826cf	-0.0025657897
172	0xbc92bd94	-0.017912664
173	0xb378b6b0	-5.7908153e-08
174	0xa7b6575d	-5.0609867e-15
175	0xb89998e6	-7.324088e-05
176	0xbcc3b6ca	-0.023890872
177	0xbc06cf5f	-0.008228152
178	0x3cbf5af9	0.023358809
179	0x3ce96c0f	0.02849391
180	0xba531db9	-0.000805344
181	0x3cda89ce	0.026677039
182	0xbb21711b	-0.0024634067
183	0xb9ade6b9	-0.00033169033
184	0xbd6cbb4c	-0.057795808
185	0x3c20674f	0.009790256
186	0xb95a615a	-0.00020826366
187	0x3cf93438	0.030420408
188	0xbaf63cd1	-0.0018786435
189	0x3c40573f	0.011739551
190	0xa18ca657	-9.530799e-19
191	0xbd0ca0af	-0.034332927
192	0xbc510d1d	-0.012759474
193	0x3a878da3	0.0010341894
194	0xbcce1517	-0.02515654
195	0x900a0495	-2.721923e-29
196	0xbb32ea89	-0.0027300438
197	0x3d522273	0.051302385
198	0xbd3d17f4	-0.04616542
199	0x3b723fca	0.003696429
200	0xae328c9d	-4.0597404e-11
201	0xba5e9809	-0.0008491283
202	0xbce0596a	-0.027386386
203	0xbc7a4ecf	-0.0152775785
204	0xad8445c2	-1.5037641e-11
205	0xbd88eaf3	-0.06685438
206	0xbd06ef8d	-0.032943297
207	0xb54dd338	-7.6675815e-07
208	0x3c9ff78f	0.019527225
209	0xbd0b7528	-0.034047276
210	0x3c8bb059	0.017051863
211	0x3c370782	0.011171224
212	0xbd57ae14	-0.05265625
213	0xbbad1cf4	-0.0052829925
214	0xbd4f5af1	-0.050623838
215	0x3c667185	0.014065151
216	0xbb18875c	-0.002327404
217	0x3c9d3ae0	0.019193113
218	0x3af78744	0.0018884917
219	0xbc8d6a55	-0.017262617
220	0x3d3357dd	0.043784965
221	0x3d529404	0.05141069
222	0xa3856663	-1.4463251e-17
223	0x3cfa4e6f	0.030554978
224	0xb508b96e	-5.0933784e-07
225	0x3cea07c3	0.028568154
226	0xbc8018d8	-0.015636846
227	0xb428ad95	-1.5709368e-07
228	0x3d589dfe	0.052885048
229	0x910a771c	-1.0922984e-28
230	0xbd178faa	-0.037002243
231	0x3cd9c3cf	0.026582627
232	0x3c8de4fc	0.017321102
233	0x3d02ca75	0.03193136
234	0xb7635e9c	-1.3552282e-05
235	0x3ce7f0e4	0.028313108
236	0x3d56c2d8	0.05243191
237	0x3d397114	0.045273855
238	0xbb82aa73	-0.0039876043
239	0x3d9d40c0	0.07678366
240	0xbd8b88b7	-0.06813186
241	0xbd1bb12a	-0.038010754
242	0xbbf8f153	-0.0075971275
243	0x3cbc65db	0.022997787
244	0xba009f89	-0.0004906585
245	0xba16b2ab	-0.00057486695
246	0xabbdfd48	-1.3499557e-12
247	0xb9426e8c	-0.00018542464
248	0xb9645883	-0.00021776748
249	0xbc02e7ff	-0.0079898825
250	0xb92a2cb9	-0.00016229124
251	0x3d058770	0.032599866
252	0xab72ab20	-8.6213155e-13
253	0xa9e37bd0	-1.0102303e-13
254	0xbcacddaa	-0.021101791
255	0x3d57420e	0.05255323

fc3.weight f4 [1, 300]
0	0x3adb891a	0.0016749233
1	0x3817bfb2	3.6179736e-05
2	0xbca49915	-0.020092526
3	0x3a9a2d66	0.0011762797
4	0xbe030870	-0.12796187
5	0x3dbb7a26	0.09154157
6	0xb642cf5b	-2.902895e-06
7	0x3c4cce8f	0.012500419
8	0x3dc24664	0.09486082
9	0x3d6b6140	0.05746579
10	0xbda82584	-0.082102805
11	0x3e1015d5	0.14070828
12	0x3c9ec735	0.019382099
13	0x3c992702	0.018695358
14	0xbdab4477	-0.08362668
15	0x39197366	0.00014634206
16	0x3d19a257	0.037508335
17	0xb56da73b	-8.853273e-07
18	0x3c463f6e	0.012100084
19	0xba15df28	-0.0005717152
20	0xb8bea3fd	-9.090451e-05
21	0x37812aca	1.5397924e-05
22	0xbd550c7d	-0.052013863
23	0x3bd9b9ff	0.006644487
24	0x3d02e003	0.031951915
25	0xbc831371	-0.016000481
26	0x3cd4c50e	0.02597287
27	0x3da0757e	0.0783491
28	0x3ad2e063	0.0016088601
29	0xbd88fd35	-0.066889204
30	0x3e8bac7c	0.27280033
31	0x3d11c688	0.035589725
32	0x3d7f103d	0.062271345
33	0xbc34cc3b	-0.01103502
34	0xbcbd10ab	-0.023079237
35	0x3ac439c8	0.0014970833
36	0x39e6d506	0.00044027733
37	0xbdddb2ff	-0.108251564
38	0xbd03be89	-0.03216413
39	0xbcc8cecc	-0.024512671
40	0xbd241c1e	-0.040065877
41	0x38311cdb	4.2226962e-05
42	0x374f99e9	1.23739965e-05
43	0xb7744a2d	-1.4560804e-05
44	0xb995f18f	-0.0002859947
45	0xbc847836	-0.016170602
46	0x3a57994d	0.0008224443
47	0xbd07fa52	-0.03319771
48	0x39eb12cf	0.00044836706
49	0xbca7c15e	-0.020477947
50	0xb70add73	-8.277001e-06
51	0xbc85dcfa	-0.016340721
52	0x3d789b45	0.06069495
53	0xbd13e60a	-0.036108054
54	0xbc4bf17f	-0.012447714
55	0xbb20ecda	-0.0024555237
56	0xbe153e35	-0.14574511
57	0x3d4c0add	0.049815048
58	0x3a8d0746	0.0010759614
59	0xbc09b2d6	-0.008404454
60	0x3d2b4164	0.04181041
61	0x38c0261a	9.1623704e-05
62	0xbca0f2f4	-0.0196471
63	0xbb8b25ff	-0.004246473
64	0x3ca4b41d	0.020105416
65	0xbcca3cc6	-0.024687182
66	0xbd077a8b	-0.03307585
67	0x3c6fb0b9	0.014629536
68	0xbe8c42fd	-0.27394858
69	0x3dc62e43	0.096767925
70	0xbcbf565f	-0.023356615
71	0xbd4ba3a7	-0.049716618
72	0xbd6dc708	-0.05805114
73	0x3cdf296b	0.02724143
74	0xbdbd115a	-0.09231825
75	0x3bd0c824	0.006371515
76	0xbad73587	-0.0016419151
77	0x3bbd183a	0.0057707103
78	0xbd1cc21d	-0.03827106
79	0xbd53a52b	-0.05167119
80	0xbbbd859b	-0.0057837493
81	0x3999fc28	0.00029370305
82	0x3a3d21a5	0.0007214791
83	0x3d41f525	0.04735293
84	0xb88ea756	-6.8022564e-05
85	0xbd4d0e21	-0.050062303
86	0xbdc35de0	-0.095393896
87	0x3c8f4230	0.017487615
88	0xbaaaf03b	-0.0013041565
89	0xbd76ce59	-0.060255382
90	0xbd5d078d	-0.05396228
91	0x3be339e4	0.0069343913
92	0x3d57451f	0.052556153
93	0x3d3a15ad	0.045430828
94	0x3dcfd78f	0.101485364
95	0x3ae7118a	0.0017629128
96	0x3c43bf9e	0.011947541
97	0xb9b2c2c0	-0.00034095906
98	0x3d36f271	0.044664804
99	0xb9a581ee	-0.00031568058
100	0xbc9031c0	-0.017601848
101	0x3a87f8a3	0.0010373782
102	0xba1d9ca6	-0.0006012417
103	0x3c864b97	0.016393466
104	0x3e55aa34	0.20865709
105	0x3a05a64c	0.00050983275
106	0x3e47ac92	0.19499424
107	0x3a848a5b	0.0010112034
108	0xba15558c	-0.00056966464
109	0x3c400b3c	0.0117214285
110	0x3de560a3	0.112000726
111	0xbac63a17	-0.0015123513
112	0xbdba7f42	-0.09106304
113	0xba663e6c	-0.00087831053
114	0x3b56ef7a	0.0032796548
115	0x39985742	0.0002905671
116	0x3aaf7073	0.0013384953
117	0x3c850365	0.01623697
118	0xbcb90a42	-0.0225879
119	0xbe538797	-0.20657192
120	0x3e12dc41	0.14341833
121	0xbc04a079	-0.0080949
122	0x3c295b7e	0.010336755
123	0xbc0fbf63	-0.0087736575
124	0xbd1050b1	-0.035233203
125	0x3c0d93c7	0.00864119
126	0xbaa254d7	-0.0012384903
127	0xbd59fecc	-0.05322151
128	0xbc96d9a5	-0.018414328
129	0x3de5aba3	0.11214378
130	0xbdc2328f	-0.094822995
131	0xbce3ae33	-0.027793026
132	0x3c36cd0d	0.011157286
133	0xbd0a90c9	-0.033829484
134	0xbca7afd1	-0.020469578
135	0x3d008f99	0.031386945
136	0x3afef253	0.001945088
137	0x3ba86ea9	0.005140145
138	0xbde10dbd	-0.109889485
139	0xbbcfa090	-0.006336279
140	0x3d75754b	0.059926312
141	0xbd92a0f1	-0.071596034
142	0xbd967a06	-0.07347493
143	0xb81eee49	-3.7892056e-05
144	0x3c80c451	0.015718611
145	0xbe64bfcd	-0.22338791
146	0xb8aae13a	-8.1481834e-05
147	0xbd00485a	-0.031319
148	0x3a215a06	0.0006155077
149	0xbd37f74f	-0.044913586
150	0xb79f9f97	-1.9028592e-05
151	0xbd1c67c5	-0.0381849
152	0x3c899f17	0.016799493
153	0xbae07d30	-0.0017127153
154	0x3d842107	0.06451612
155	0x3dfbc14a	0.12292726
156	0xba84bf5c	-0.001012783
157	0xbce74810	-0.028232604
158	0xba9a8628	-0.0011789249
159	0xbcfd0585	-0.030886421
160	0x3c39729b	0.011318828
161	0xbd00f401	-0.0314827
162	0xbc216920	-0.009851724
163	0xbd0f064d	-0.03491812
164	0xbbda8dc2	-0.006669731
165	0xba39676a	-0.00070726
166	0xbd7a7ed4	-0.06115611
167	0x3cc60711	0.024173291
168	0x3d0b17b4	0.033958152
169	0x3d4216af	0.047384914
170	0x3aaaf97a	0.001304432
171	0xb92926de	-0.00016131575
172	0xbd922b1f	-0.07137131
173	0x3a31cfd8	0.00067829853
174	0xba0ae6f5	-0.00052986975
175	0x3760e9b4	1.3405854e-05
176	0xbcb8b4fa	-0.022547234
177	0x3dc21e5f	0.09478449
178	0x3da67cb7	0.08129256
179	0xbcfd7aef	-0.030942408
180	0xb8276320	-3.990822e-05
181	0xbd3e74e0	-0.04649818
182	0xb94bfb68	-0.00019453245
183	0x37a45f4a	1.9594696e-05
184	0xbd1859d5	-0.037195046
185	0xbdf08850	-0.117447495
186	0x39af09aa	0.000333858
187	0xbbf97ad5	-0.0076135197
188	0xba4fb370	-0.00079231616
189	0xbcf96903	-0.030445581
190	0x39eef583	0.00045577818
191	0xbe6260b3	-0.221072
192	0xbda8d37f	-0.08243465
193	0xbbd07f0f	-0.006362803
194	0xbd4fd478	-0.050739735
195	0x3a22871a	0.0006199941
196	0x3d2b4d3d	0.041821707
197	0x3c825b37	0.015912635
198	0xbd11534b	-0.035479825
199	0x3c0bdd65	0.008536671
200	0x39d65616	0.000408814
201	0x3a87e715	0.001036855
202	0x3cb16b8a	0.021657724
203	0xbd6b8ccb	-0.057507318
204	0x3807ca04	3.237465e-05
205	0xbd57c653	-0.05267937
206	0x3d47d750	0.048789322
207	0xba8eaf25	-0.0010885937
208	0x3df38387	0.11890321
209	0xbcbc9bb7	-0.02302347
210	0x3d1a5d78	0.037686795
211	0xbc247aa5	-0.010039006
212	0x3d0b97d8	0.034080356
213	0x3d19ced8	0.037550777
214	0xbc301823	-0.010747942
215	0x3d89f87e	0.06736849
216	0xbca437f0	-0.020046204
217	0xbd17760d	-0.036977816
218	0x3c82c358	0.015962288
219	0xbc811252	-0.015755806
220	0xbda24494	-0.079232365
221	0x3db7cc74	0.08974543
222	0xbab155e6	-0.0013529628
223	0x3c0c32f3	0.008557069
224	0x3aab28fd	0.001305848
225	0x3c49e708	0.012323149
226	0x3d5560ec	0.052094385
227	0x388494ea	6.321988e-05
228	0x3c148f12	0.009067314
229	0x3a34c784	0.0006896185
230	0x3bb90c2c	0.005647203
231	0x3dd676ce	0.10471879
232	0x3e302749	0.17202486
233	0x3c41d5a9	0.011830726
234	0x3a41e590	0.0007396573
235	0x3cf2252d	0.029558742
236	0x3cca6247	0.024705065
237	0x3de6cc55	0.11269442
238	0xbd5747a8	-0.05255857
239	0x3c55e15e	0.01305422
240	0xbcd72daf	-0.0262669
241	0xbc27227c	-0.010201093
242	0xbe0c16c0	-0.13680553
243	0xbcbc8f8c	-0.023017667
244	0x37d69bdd	2.5583367e-05
245	0xbaabbf57	-0.0013103288
246	0x37f799b8	2.9516275e-05
247	0xbb14d699	-0.0022710918
248	0x3b0084e7	0.0019610466
249	0xbd29f08c	-0.04148917
250	0xb9894e37	-0.0002618895
251	0x3db00443	0.08594563
252	0x3a217f44	0.00061606267
253	0xb3c66929	-9.239222e-08
254	0x3dad1702	0.08451654
255	0x3d6e444c	0.0581706
